checkpoint_actor.pth (torch_old, 44264 bytes, 8 tensors)

fc1.weight f4 [256, 33]
00000000: c68f a13b 7f6e 3a3c 8977 803d 90fa c43b
00000010: 76b9 98ba da8e 813b 2a7e 82bd 167e 1cbc
00000020: e4ee 21be 7c72 373d a81e 6abb 1012 bc3c
00000030: a4bb c6bc 81ea 5b3d 4be7 eb3d ee4c c63c
00000040: a30e 6bbd a5b5 e3bb 4d78 8cbc 473c 983c
00000050: fbbc 91bc 425c 0bbc f910 39bb 1158 f83c
00000060: a873 033d a409 8d3c 4712 94bd 9c6f 63bc
00000070: cae2 c2bd f8b1 303d f4b3 8ebc 04ef f73c
00000080: 08ed 8cbd 2fb6 e7bc fe04 163e d877 32bd
00000090: 6ed6 23bd 6db9 183c 1413 3bbe e900 0f3d
000000a0: e253 7f3d fb08 a5bd edd6 c9bc 3ea9 5c3c
000000b0: aa10 343c 65dd 5b3b c643 1f3d b7a7 18be
000000c0: 362f 7abb eca6 103d e524 c73c c71e 993d
000000d0: 322a e33b a22a 243b 2908 4e3c 8e9d 043d
000000e0: 23bd 753c d9b8 19bd 6af8 1bbc 3e6b 583c
000000f0: 95b5 78bd 5307 a03d f064 56bc 5df3 fa3b
00000100: e0d1 253c 8ebb 9e3e 82bb fe3d 3c25 16bd
00000110: eba2 2c3c 8805 603c a895 a139 b466 7cbd
00000120: 2c5e 063d 5744 56bc 8e50 cfbc 3a62 5cbd
00000130: c99e 633c 86c8 2fbc 8165 003d 4982 05be
00000140: 55bb 953d 8f8e f83c f718 71bc 969f babc
00000150: 484f b3bd 1b3f 65bd caf4 8d3d 5551 db3d
00000160: a510 b63d 3478 78bd 1352 963b a991 1e3d
00000170: 073d e33c edc0 b93c c160 b7bc 9898 4abd
00000180: 4312 c23c c4b7 9b3c 9d61 30bd 510b b9bc
00000190: c056 01be 9c43 9d3c a85c 4ebd 6a63 b43d
000001a0: bf73 91bd aaed 423b e7af ca3c f46d 4fbd
000001b0: 60fd 8ebd fc9b f2bb 19ad a33c 895b 573c
000001c0: 8ad5 9b3d 7808 f93d 2b44 b8bd a185 a63b
000001d0: 72b3 98bc 6d37 32bd 2b15 d7bb d3f0 aebc
000001e0: f655 493d 7cbc 973c 77b1 88bb 080f 773b
000001f0: efc4 9abd d445 a0bd a235 e4bb 2530 583c
00000200: a0ff 27bc cbe6 61bd f0cf 443d dffd 7c3e
00000210: 907e bdbd faa9 913d 22bc 9b3d 4d7f adbd
00000220: 908e a8bd 5a35 2b3c d2c9 a7bc 8c97 49bc
00000230: 682b 9f3c 510c 20bd a0b6 15bd a8e5 143c
00000240: a13f bc3c 4932 463c a658 903d b836 523d
00000250: b534 43bd fbd1 8f3b c1f7 c23c 9552 ee3c
00000260: b1cf 3f3d a118 39bc 09ef 423d 9125 17bc
00000270: d66d 143d 9d9f ba3d 616a 80bd e74d 16bc
00000280: fdfc ad3c 5016 4ebd 1230 723d f490 a63c
00000290: 361f 18be cd43 5b3c fe82 b23d fbbb dcbd
000002a0: 8ae9 753d c0a0 42bb b2f8 72bd 26b2 b8bd
000002b0: 7aa8 823b 8073 59bd 5514 033d 60a9 07bc
000002c0: 8baa eabc 8f89 cbb8 999f 1d3d f41f 08be
000002d0: 60d3 263c a721 633d 2416 063b c038 3f3b
000002e0: bbaa 43bc 59fe 9dbc 4810 9ebd 574d 813d
000002f0: ea6d b6bc a56c dbbc 6e33 9a3c 923e 9dbd
00000300: 35c6 bcbb 5539 883d 9cde b33c 2a42 67bd
00000310: 2612 073d 769b 413e b375 a1bc 8b5e 4fbe
00000320: 6b2b 843c 6723 49bd 79de 143d 4de9 c03d
00000330: add6 013d e346 20bd 740a 0cbc 65e6 af3c
00000340: e25c 0abd d680 e1bc 4e9b d93b 9a56 9d3d
00000350: a9c2 013e 6613 f93a ba49 873c 703f b43b
00000360: ac16 8a3d db73 e8bc 3059 22bc b1fb a3bc
00000370: 3940 d1bc 9b13 923c 3983 b53b 927a 963c
00000380: 3f9b 93bd 517f 06bd 6ebc 623c 0021 763c
00000390: cec9 bb3c a69f 0bbd 5536 d7bd 834d 88bc
000003a0: 76b2 97be 5ba6 68bd 534b 753d 1e5d 8b3d
000003b0: 2481 ea3d 72b0 c9bd d247 073e 8505 67b9
000003c0: af49 4c3d 9b3a 4e3b b292 24bd 672b 43bd
000003d0: beec 733d 8697 423e 5744 5cbb bf6f 49bd
000003e0: 5ddb 9abc 8d22 6e3b 75a8 9bbc 5e15 99bc
000003f0: 61bf 803a 8b2a 68bd ef9c 413d 1c5e 4d3c
0.004930469 0.011378883 0.062727995 0.0060113147 -0.0011651951 0.003953797 -0.0637172 -0.009551546
-0.15813786 0.044786915 -0.003572384 0.022957832 -0.024259396 0.053690437 0.11518725 0.024206605
-0.057387006 -0.006949144 -0.017147208 0.01858343 -0.017790308 -0.008505883 -0.0028238876 0.03031543
0.03209272 0.017216511 -0.072300486 -0.01388159 -0.09515913 0.043138474 -0.017419793 0.030265339
-0.068811476 -0.028285114 0.14650342 -0.043571323 -0.039999418 0.009321553 -0.18268996 0.034912977
0.062335856 -0.080583535 -0.024638617 0.013468085 0.010990301 0.003354871 0.038882993 -0.14907728
-0.0038175113 0.03531544 0.024309585 0.074765734 0.0069325203 0.0025049825 0.012575188 0.03237682
0.014998707 -0.0375298 -0.009519676 0.013209162 -0.060720045 0.07813897 -0.013085589 0.0076584057
0.010120839 0.31002468 0.12438108 -0.036656603 0.01053689 0.013673194 0.00030819816 -0.061621383
0.032804653 -0.013077817 -0.025306966 -0.053804614 0.013892838 -0.010728961 0.0313468 -0.13037981
0.073111214 0.030341415 -0.014715425 -0.022781175 -0.08755356 -0.055968385 0.069314554 0.10708872
0.088898934 -0.06066151 0.0045874207 0.03871313 0.027739061 0.022675002 -0.022385003 -0.04946193
0.023690348 0.019008525 -0.04306184 -0.022588404 -0.12630749 0.019197278 -0.050381333 0.08808024
-0.07102155 0.002974371 0.02474208 -0.05064197 -0.06981921 -0.0074038487 0.01998 0.013144382
0.07609089 0.121598184 -0.08997377 0.005081848 -0.018640254 -0.04350989 -0.0065638027 -0.021355068
0.049154244 0.018522494 -0.004171546 0.0037698168 -0.07557093 -0.07825819 -0.0069644013 0.013195072
-0.010253817 -0.055151742 0.048049867 0.24706219 -0.092526555 0.071124986 0.07604243 -0.08471546
-0.08230317 0.010449732 -0.020481978 -0.012304198 0.019429877 -0.039074246 -0.036551118 0.009087957
0.02297956 0.01209695 0.07048158 0.051321715 -0.047657687 0.0043890453 0.023799779 0.029092113
0.04682893 -0.011297376 0.047591243 -0.009225265 0.03623756 0.09112475 -0.0627029 -0.009173847
0.021238798 -0.050314248 0.059127875 0.02033279 -0.14855656 0.013382864 0.08716391 -0.10778042
0.060037173 -0.0029697865 -0.059319206 -0.09018354 0.003987369 -0.053088665 0.032001812 -0.008280128
-0.028645774 -9.7054166e-05 0.038482282 -0.13293439 0.010182232 0.055452015 0.0020459974 0.0029178113
-0.011942561 -0.019286321 -0.07717949 0.063135795 -0.022269208 -0.026785204 0.018823352 -0.0767795
-0.005760933 0.0665156 0.021956734 -0.056459583 0.032976292 0.1890696 -0.019709444 -0.20250909
0.016133985 -0.049106028 0.03634498 0.094194986 0.03169887 -0.039130103 -0.008547414 0.021472165
-0.033779986 -0.027527254 0.006640828 0.076825336 0.12671913 0.0019002974 0.016514648 0.0055007264
0.067426056 -0.028375557 -0.009908959 -0.020017477 -0.025543319 0.017831614 0.0055393246 0.018368993
-0.07207345 -0.032836262 0.01383887 0.015022516 0.022923376 -0.0340878 -0.1050841 -0.016638523
-0.29628342 -0.056799274 0.059886288 0.0680487 0.11450413 -0.098481074 0.13210991 -0.00022031933
0.049874958 0.0031468037 -0.040178962 -0.047648814 0.059551947 0.19003114 -0.003361007 -0.049178835
-0.018903429 0.0036336512 -0.019001225 -0.018686946 0.000982266 -0.056681197 0.047268804 0.012534644

fc1.bias f4 [256]
00000000: 09d4 dfbd 8280 4ebc ec5e 0abe 3ea2 19be
00000010: a4c6 ab3d e488 bc3d f04b fabd 5c44 0b3e
00000020: 67fb 05bd 6f4f 773d 4f18 e3bd 17c5 adbd
00000030: 9d6e 56bd 1795 91bd d3f6 0a3e bbc8 e4bd
00000040: e473 1abe c48a 563d c4dc 943d 2001 51bc
00000050: cb1a 1cbe 8df2 b5bc 1a7b 8e3d d725 d6bd
00000060: 3579 483c 796f 92bd 8647 193e a351 fc3d
00000070: 95c2 be3c a094 353d 11e0 2d3b 59cb 17be
00000080: 1809 0a3d 4b92 f63c 936c 9abd e408 22be
00000090: d5a7 8d3c a857 fe3d 6d38 b8bc 1908 9e3c
000000a0: 4668 15bd 06bc 3abd f656 603c c77a 21be
000000b0: 88f8 54bd 9983 c13d c57d 92bd 0162 f0bd
000000c0: c52e dabd 4764 39bd 7962 203e 67f5 61bc
000000d0: 69ab 11be 67b8 40bd bf5d 093e 2b16 0cbe
000000e0: 9b67 00be 3d2a 00be 6583 253e bbe7 a33d
000000f0: 6492 843c b0ad cd3b 6353 363d a51a 603d
00000100: e14d 98bd 910b 27be 5f59 a23d 6d36 f4bd
00000110: d039 7ebc 0302 1fbc 2185 7d3d cc2c 41bd
00000120: c211 af3d c82d d4bd 24da a4bd fbbe 12be
00000130: 4fda a23d 295e 8dbd 1605 02bd 2b73 7a3c
00000140: 55f5 9b3b f4e7 013e f688 ee3c 10ef 15be
00000150: f912 d8bd ace3 0ebe c229 dc3d 761c 2ebe
00000160: 364b 0c3e b14c bcbc bcd5 1b3d 3c60 963d
00000170: be92 04be cd7b 0c3e 094c f5bd 3e60 7f3c
00000180: 82cb 9bbd 60c8 91bc af6e 8c3d 92b6 7d3d
00000190: 25a4 24be dbdf b83d b2ed d5bd 78dc 883d
000001a0: d114 4c3d 4306 bc3b c1ec 26bd c122 a6bc
000001b0: 769c 01be 9519 47bd 1542 1cbe f824 6bbd
000001c0: 8655 5c3d f8ad 233e 6145 1d3e 190c 22be
000001d0: 4cf1 af3c ea97 c53d bf2b f2bd 6d7b d6bd
000001e0: 700e 38bc a73a 103e c4ec d8bd 8648 243e
000001f0: 633e 9cbd 9301 0ebe 733c 0f3e 4511 acbd
00000200: 51d5 d23d 5a37 06be ca1b e33c 3381 1cbe
00000210: a945 de3d a5ab 01be 2099 d1bd b05f 87bd
00000220: b399 67bc a2b4 3f3d 88fd 8abd 0eb1 11bd
00000230: f109 1a3d 2c59 c53d b308 9bbd f933 1f3e
00000240: b33b 01be 0332 02be a76d f03d 8aeb 6dbd
00000250: 53eb 2fbe f6a0 9b3d b100 9f3d 977e 13be
00000260: b606 e1bd 4e31 cd3c 758a 983c 6da9 16bd
00000270: 1aac 1fbe 5e60 03be 92fe 2fbe d6fd fc3d
00000280: c4f4 f5bd 4bfe 1cbe a92b acbc c404 2e3e
00000290: 8c05 28be 68ef 7bbc 5af7 dbbd 4079 ba39
000002a0: 2791 92bd d297 143c be49 18bc db6c 9b3d
000002b0: 9179 e0bd 4187 9ebd 1542 f8bc a4bb 0f3e
000002c0: bb10 19bc a3a1 1ebe 3345 24be 2ae5 d2bd
000002d0: 906f 933c 9080 e1bc 4819 dc3d 0020 ab3b
000002e0: 626e a23d b7ad f1bd de3f b9bd a1d4 6f3d
000002f0: a821 11be a26f dfbc 3845 2abd b194 793d
00000300: 6960 153e 6c61 e03d 52f5 2dbe 25f4 febd
00000310: fd7f cabd 970b 153d 331b 4d3d 3eb0 cc3d
00000320: 90e7 aa3c 08b5 2abe af8d fb3b 8e45 613d
00000330: 85ae c0bd 2412 173e 7d15 02be a555 e4bd
00000340: b885 833d 042e bf3d 5ab7 fabd 22fa 3cbc
00000350: e162 21bd d7b5 d1bd 8440 db3d efe4 093e
00000360: 8f69 1d3e 1bd7 213e 83e2 0f3d 48b7 87bd
00000370: 3e59 833d 7bba 2e3d 20b6 833d 752c 00be
00000380: 9641 9e3a f4fe 6ebc eeb7 07be a864 8dbd
00000390: aafc 93bc 6c52 8ebd 36e2 023e 49fa ed3d
000003a0: a54a 063e 122b f03d 184d 873d 4875 713c
000003b0: 1579 233e 4d53 2d3e 6d6b 1e3e 194d e03d
000003c0: 289f 053e c193 9f3d 716e ca3d 4d7e 133d
000003d0: 26ce f83d 4b46 083e 4338 e0ba 8379 88bd
000003e0: 32b3 a23d 3fbd 0dbc 93c1 153e 923c 013d
000003f0: b51d 303d 8d54 ba3d 6572 41bd 427c b6b9
-0.10929114 -0.012603881 -0.13512772 -0.15003297 0.08387497 0.09205797 -0.12221515 0.13600296
-0.03271046 0.06037849 -0.11088621 -0.084848575 -0.052351583 -0.07108515 0.13570718 -0.11171099
-0.15083271 0.05237843 0.0726867 -0.012756616 -0.15244596 -0.022210384 0.069570735 -0.10456436
0.012235929 -0.07150168 0.1496869 0.123202585 0.023286143 0.044331193 0.002653126 -0.14823665
0.03370008 0.030099055 -0.0754024 -0.15823704 0.017291943 0.12419063 -0.022487843 0.01929097
-0.036476396 -0.04558947 0.013692608 -0.15769492 -0.05199483 0.094489284 -0.07152895 -0.11737443
-0.10653452 -0.045261648 0.15662564 -0.013791419 -0.14225544 -0.04705086 0.13414668 -0.13680331
-0.12539522 -0.12516113 0.16163404 0.080031835 0.016183086 0.0062768087 0.044513118 0.05471291
-0.07436729 -0.16313006 0.079272024 -0.119244434 -0.015516713 -0.0097050695 0.06189454 -0.047161862
0.08548309 -0.103602946 -0.080494195 -0.14330666 0.07951795 -0.06902725 -0.03174313 0.015286247
0.0047594705 0.1268614 0.029118042 -0.14641976 -0.10550494 -0.13954037 0.10750152 -0.17003044
0.13700566 -0.022985788 0.03804563 0.07342574 -0.12946603 0.13719101 -0.11977393 0.015586911
-0.076071754 -0.017795742 0.06857049 0.06194169 -0.16078241 0.09027072 -0.104457274 0.06682676
0.04982454 0.005738051 -0.04075313 -0.020280244 -0.12657341 -0.04860838 -0.15259583 -0.057408303
0.0537925 0.15984333 0.15358497 -0.15824927 0.021477364 0.09648116 -0.1182475 -0.1047276
-0.011233911 0.14084874 -0.105920345 0.1604329 -0.07629087 -0.13867788 0.13987903 -0.084017314
0.10294593 -0.13107052 0.027723212 -0.1528366 0.1085313 -0.12663133 -0.102342844 -0.06610048
-0.014135766 0.046803124 -0.067866385 -0.035569243 0.037607137 0.09636149 -0.075700186 0.1554717
-0.1262043 -0.1271439 0.117396645 -0.058085956 -0.17179613 0.0759906 0.07763804 -0.14403759
-0.10987608 0.025047924 0.018620709 -0.03678267 -0.15592995 -0.1282973 -0.17186955 0.12353103
-0.12009576 -0.1533138 -0.021016913 0.16994005 -0.16408366 -0.015376903 -0.10740538 0.00035567023
-0.07156592 0.0090694 -0.009294925 0.07589122 -0.10960687 -0.077406414 -0.030304948 0.14036423
-0.009342368 -0.15491347 -0.16042022 -0.10297616 0.017997533 -0.027527124 0.107470095 0.0052223206
0.0793121 -0.118007116 -0.09045385 0.058552388 -0.14172995 -0.02727491 -0.04156992 0.06093282
0.14587559 0.10956082 -0.16988114 -0.124489106 -0.09887693 0.036388006 0.050074767 0.09994553
0.02086237 -0.1667062 0.007676802 0.054997973 -0.09408287 0.14753014 -0.1270351 -0.11149148
0.06421989 0.09334949 -0.12242003 -0.011534246 -0.03940094 -0.10239761 0.10705665 0.13466237
0.15372299 0.15804712 0.035128128 -0.06626755 0.06413506 0.04265831 0.06431222 -0.12516959
0.001207399 -0.014587153 -0.13253757 -0.06903964 -0.018064816 -0.069493145 0.12781605 0.11620004
0.13114412 0.11726965 0.06606501 0.014737435 0.15964158 0.16926308 0.15470667 0.10952205
0.13048995 0.07791854 0.09884346 0.03600912 0.12148695 0.13308065 -0.0017106611 -0.066638015
0.07944335 -0.008651077 0.14624624 0.031551905 0.04299708 0.09098158 -0.047228236 -0.00034806324

bn1.weight f4 [256]
00000000: a118 8b3f 3e60 963f 3ab0 6c3f ded6 913f
00000010: 4c0c 773f b7bb 783f 14bb 873f 798d 3c3f
00000020: 0c7e 053f cede 3a3f 770b 013f e2c5 373f
00000030: 8f1e f13e fb0c 993f fe27 983f bcdf 0d3f
00000040: 90bb ac3f 545f 9f3f 5663 a03f f367 e13e
00000050: a79a b63f f5b4 3b3f ca58 0b3f dc1b 2b3f
00000060: c6a9 843f bf24 863f f4bb ce3f 5ad4 1a3f
00000070: e4ed 243f 482f 943f 1dcf b73f 5677 103f
00000080: 2811 383f f3dd 513f f2fc 003f b1ac 8a3f
00000090: ab52 c23e 40f0 533f 87de 353f dd0e 733f
000000a0: f6c4 173f ba71 853f b379 2c3f 4a9a 5c3f
000000b0: 1e22 8e3f 26b6 963f c34c f73e d085 9b3f
000000c0: e329 353f e727 7c3f cc53 643f 915e c33e
000000d0: 95e9 133f cef9 be3f ccce 333f 7444 153f
000000e0: c702 723f 8810 323f cfce 893f 1820 593f
000000f0: acd2 6f3f f0d2 103f 2371 473f 34b8 3b3f
00000100: 589e a73f 6299 8b3f 5ab5 953f 0f64 1d3f
00000110: 1f9a d23e e619 633f fd9f 393f 8f8c aa3f
00000120: 6606 4a3f 9156 403f ea19 843f 2e0b 9d3f
00000130: 7091 743f 9b69 ab3f 0597 723f a747 983f
00000140: 19ca 793f ae4f 443f e758 973f cd9f 233f
00000150: f39e 4e3f 741f 943f 95c9 573f 6e67 b83f
00000160: 6b7a 9a3f 9b51 793f 1554 323f c8a0 9c3f
00000170: 8b7c 283f 77ce 173f 351e 293f 781e 8e3f
00000180: a769 a03f 5495 8a3f 3dd9 423f 3d03 8e3f
00000190: 9aa5 403f eb51 443f 9556 523f 4b85 5f3f
000001a0: 540b 7a3f 2b35 e23e 7aa2 e73e f4fb 5c3f
000001b0: f8ca 653f f551 993f c0fe ee3e a5c4 1e3f
000001c0: e2ba 1b3f b538 403f ba7e a43f 7b4b 0d3f
000001d0: 5b03 883f 97aa 3a3f 9fa7 f63e 5e76 ac3f
000001e0: e2cf 503f 404f 4a3f ca4b fa3e 2173 9f3f
000001f0: e215 a43f 8b0c f73e b67f 9e3f 8e67 503f
00000200: d94a 9c3f 7cab 243f 46e0 873f 6320 873f
00000210: 5871 463f 6dde 9e3f 26a4 2e3f 432b 4c3f
00000220: 1e65 fb3e 90f4 113f d988 7d3f aa9f 9c3f
00000230: d87f 223f 8de0 0e3f 10ed 853f b10f d43e
00000240: e787 573f 0dcd a43f bf6f d83e b3c7 443f
00000250: a8b6 043f 451e 883f e949 363f 1419 b53f
00000260: 6c8d 753f 731d 7f3f 7337 ef3e 10ea 3a3f
00000270: b4a1 1d3f 5275 533f 7740 293f 7055 623f
00000280: e509 973f e5c7 a83f 92c4 0b3f 4968 c93e
00000290: 210a e33e 7130 913f 3c55 733f e809 0a3f
000002a0: 8e81 903f a8ba 523f 628f 8c3f 444f 6f3f
000002b0: e841 3c3f a56f 8c3f 476d 3c3f 05e7 5d3f
000002c0: 09b6 cf3e bddf 973f af71 9b3f d45c 943f
000002d0: c8cd a53f 3fce 3e3f 66f4 1b3f 6616 0a3f
000002e0: 87a5 af3f 6d28 8a3f f4c9 393f 3af2 0d3f
000002f0: 1830 273f 1220 a23f 3713 8b3f d369 7b3f
00000300: 8000 6a3f 6207 853f 4149 893f b406 8f3f
00000310: d2f9 823f 6dc8 623f 7035 853f 7b74 643f
00000320: 95d2 6d3f 6a87 823f bb17 953f c650 893f
00000330: 8a56 9a3f 14fc d23e 0d58 773f e2b0 5c3f
00000340: 1652 8e3f ea4a 803f d4e1 a23f f46a 853f
00000350: ee2e af3f de4d 4c3f 0094 403f 7751 4b3f
00000360: 4864 3e3f 4d65 903f da06 ba3f 1285 483f
00000370: 0593 443f 6c5f 913f 839a 663f fd63 ce3e
00000380: 2ad0 5a3f 4811 043f ced0 9f3f 606f a73f
00000390: 0f18 323f 1018 443f af0f 583f 56a6 a83f
000003a0: 28a3 683f fe63 6e3f 2d86 553f d853 4d3f
000003b0: 9b82 903f d594 173f fd3c 953f a589 8c3f
000003c0: 8aea 823f e7df e93e a151 9e3f 6df8 8c3f
000003d0: 0fe4 c43f 9af7 a53f 242f 493f 7e47 8e3f
000003e0: 3e5a b43f 7f3b 993f 61fa 883f a0d6 963f
000003f0: 01c8 983f 74c4 a33f 5069 be3f 3867 943f
1.0866891 1.1748121 0.924564 1.1393697 0.9650314 0.9716143 1.0603967 0.7365337
0.5214546 0.7299622 0.5040812 0.7178632 0.47093627 1.1957086 1.1887205 0.55419517
1.349474 1.2450967 1.2530315 0.4402462 1.4265946 0.73322994 0.54432356 0.66839385
1.0364311 1.0479964 1.6151109 0.6048027 0.6442549 1.1576929 1.4360081 0.5643209
0.7190118 0.8197929 0.50385964 1.0833951 0.37953696 0.8278847 0.71042675 0.94944555
0.59284914 1.0425332 0.673732 0.86172926 1.1104162 1.1774337 0.48300752 1.2150211
0.7076704 0.98498386 0.89190364 0.38158086 0.5777829 1.4919984 0.7023742 0.58307576
0.9453549 0.69556475 1.0766238 0.84814596 0.93680835 0.56571865 0.7790701 0.73327947
1.3095198 1.0906184 1.1695969 0.614808 0.4113321 0.8871139 0.7250975 1.3324145
0.78916013 0.7513209 1.0320408 1.2269037 0.9553442 1.3391603 0.9476169 1.1896867
0.97574 0.7668408 1.1824006 0.6391571 0.8071129 1.1572099 0.84291965 1.4406564
1.2068609 0.97390145 0.6965955 1.2236567 0.6581504 0.59299415 0.6606172 1.1103048
1.2532243 1.0826821 0.7611273 1.1094738 0.7525269 0.76687497 0.82163364 0.87312764
0.97673535 0.4418119 0.45241147 0.8632195 0.8976283 1.1978136 0.46678734 0.62018806
0.60832036 0.7508653 1.2851174 0.551933 1.0626024 0.7291655 0.4817476 1.3473623
0.81567204 0.79027176 0.48885947 1.245701 1.2819178 0.48251757 1.2382724 0.8140801
1.2210342 0.64324164 1.0615318 1.0556759 0.775167 1.2411629 0.6821922 0.7975351
0.49100584 0.570138 0.9903694 1.2236226 0.63476324 0.5581139 1.0462971 0.41418222
0.84191746 1.2875077 0.42272756 0.76867217 0.5184121 1.0634238 0.7120653 1.4148278
0.9591892 0.9965431 0.46721992 0.730134 0.61574864 0.8260089 0.6611399 0.8841162
1.1799895 1.3186003 0.5459682 0.39337376 0.44343665 1.1342908 0.9505193 0.53921366
1.1289537 0.82316065 1.0981257 0.93480325 0.73538065 1.0971571 0.73604244 0.8668063
0.4056857 1.1865155 1.2144068 1.1590829 1.2953424 0.74533457 0.609198 0.5394043
1.372239 1.0793587 0.7257378 0.55447733 0.6530776 1.2666037 1.0865239 0.9820835
0.9140701 1.0392878 1.072548 1.1173921 1.0232489 0.88587075 1.0406933 0.89240235
0.9289945 1.0197575 1.1647867 1.0727775 1.205766 0.41207945 0.9661873 0.862074
1.1118801 1.0022862 1.2725167 1.0423265 1.3686197 0.79806316 0.7522583 0.7942118
0.7437177 1.1280915 1.4533341 0.7832805 0.76786834 1.1357245 0.90079516 0.4031066
0.85473883 0.5158887 1.2485597 1.3080864 0.6956796 0.76599216 0.8439893 1.3175762
0.90873957 0.93121326 0.8340786 0.8020606 1.1289858 0.59211475 1.1659237 1.0979506
1.0227826 0.45678636 1.2368661 1.1013314 1.5382098 1.2966187 0.78587556 1.1115568
1.409004 1.1971282 1.070141 1.1784248 1.1936036 1.2794328 1.4875889 1.1594

bn1.bias f4 [256]
00000000: 380a b4bd 4bc8 a33d e9df fe3d b3a7 19bd
00000010: caf2 d2bd 0207 033e a6ae f3bc f87e 143e
00000020: 3f5a ac3d 9d7d 1b3e b5d1 893e 13e0 6cbd
00000030: 633a d53c c389 6c3d 738a 32be 0288 8e3d
00000040: ba94 cabb b66b 0e3e e33b 9c3c 9209 f13d
00000050: 0800 773d 78dd d23d 3190 8dbb 4a7e 193e
00000060: 6855 0fbe ecae 0e3d 8716 e93d e243 7c3c
00000070: 3e34 d43c 7e0c 5c3d 7383 f03d c465 683d
00000080: 7db3 ccbd b480 eb3b 8015 583e aaf0 863e
00000090: fd5f 923d 83f8 ef3d a2c0 e3bd b86d 6cbd
000000a0: 5a30 fbbd 112c ecbd c773 193e 8e59 a9bc
000000b0: 254f ecbd 69b4 44be db03 47be e451 58be
000000c0: 7f72 8a3d 8859 443e 863c 683c 8c79 243e
000000d0: 37d7 3ebd 9aae 3a3c cf32 123e c855 0e3d
000000e0: 5f96 a9be b257 34bc 3f92 9abd 8f9d 003e
000000f0: 9e73 063e 49e2 11be b6bf 4d3e 22a1 11be
00000100: 72db 5e3e 5d31 03be ab84 51bc 18aa 7a3e
00000110: 67b9 47be 8db8 783d df0a e1bd c0f8 6c3c
00000120: d5eb 783e c1dd 483c c426 003d 1a66 e1b9
00000130: de42 fc3d cac7 fc3c 897f 783d 9823 583d
00000140: 8118 a93c bf81 96bd 556e 473b 9c0b 1f3e
00000150: 6599 133d 72d8 0c3e 63f3 e1bd 91cf c23d
00000160: 9a1f b2bd 9ab4 5c3e 7636 593e 417c a9bb
00000170: 1019 0e3d 01d2 20be b4d1 de3d fdea 033e
00000180: 80f8 933d b402 9c3d 9064 203d 7edd 313e
00000190: 5bb0 57be ddc8 583e 06bd db3d 9934 853c
000001a0: 693c cc3d 86ea 50bd 13fb 323c 57cb 803d
000001b0: 7c77 c939 c3cd a63e f9dc 4abd 8ed9 403c
000001c0: 3fdd b83d 201f 7d3d f987 6e3b 3601 153e
000001d0: 44b0 123e 21b3 6f3e ebf0 f53d 71b3 3b3d
000001e0: 78a0 ec3c d276 f6bd 617c 9d3c b1af 1f3e
000001f0: a23b 243c 3633 0e3e 4b68 d83d 76aa ad3d
00000200: f027 febd 1c8b c5bd 3454 883e 04c1 dc3c
00000210: b5f3 9c3d 4e28 25bd 1270 cf3c eaaa d33d
00000220: 8213 a6bd 3d29 9a3d ee00 a53d 1d16 193e
00000230: ddd8 3c3e 4932 3c3d b3c8 e5bd 8f21 09be
00000240: accd bbbc b62e 8c3d c3c8 033e 5300 1c3e
00000250: ef4b 5abe ec8e 743d 6bec 0d3c 08cf ecbd
00000260: a653 543d 0405 3f3e 8f8f b8bd 840f 553d
00000270: 8981 7e3e d346 153d e3ef 3abd 8d5e 2d3e
00000280: 589c a2bd 0365 3dbd 6fca e93d d370 3b3e
00000290: f960 083e c2cd 863d 785f 173d f126 17bd
000002a0: 9e90 9dbd 6916 b83d 58df 23be 3c5c 483d
000002b0: 1ad9 9ebe bef9 103c 00a0 733e 8191 31be
000002c0: b52d aabd 2d00 7fbe 17b3 68be 31c7 ccbd
000002d0: 6a4d 1fbe 04c0 463d 2861 ed3d af16 17be
000002e0: 7c32 733e be45 0b3d f822 9abe ba98 493e
000002f0: 2195 c5bd 80a7 2bbe 089e f13d d23f 39be
00000300: dd73 9c3d 8636 28be ba05 dd3d 2037 983c
00000310: ada5 273e e0dd 913d 8b57 133e c850 a43d
00000320: abcd 4cba 62fd 09bd 4f74 6e3d cfd1 0fbe
00000330: 1cf7 00bd 0b35 18bd 9da0 243e 4b68 863c
00000340: d4e3 c73d 5488 39bc 4af0 f1bc 71a1 58be
00000350: 02ac 333e 46ae 193e 9b63 a7bd 6a5e bdbd
00000360: ba93 563c 4f0c 843c 322a 2eba 560e 063e
00000370: cbb0 9b3e 3f56 acbd f41b 073e 47f2 bb3d
00000380: cbcd 92bd a0f1 0bbe b49a 9637 d7db c3bd
00000390: 031e 383e f3e6 24be 49df 403e ca6e b63d
000003a0: 4bac 30be 7ea4 f33b b47a 03be b139 af3e
000003b0: 0050 dabd 288e ba3c 33c9 2cbe 4cf9 b13c
000003c0: 8915 d2bd 0878 ef3d d74a 573e 0026 6d3d
000003d0: 98b2 e43c 4fc8 f93c 6327 893e 361f 34bd
000003e0: 5a2c f13c 48e0 3e3e 531e cd3d d2f7 053d
000003f0: b511 23bd 7631 453e ce34 63bd c6b5 d13d
-0.087910116 0.07997187 0.12445051 -0.037513446 -0.103002146 0.12795642 -0.029746365 0.1450156
0.084156506 0.15184636 0.26917806 -0.05783088 0.026028818 0.057748567 -0.17435627 0.06959535
-0.0061822804 0.13908276 0.019071525 0.117694035 0.060302764 0.10296148 -0.0043201675 0.14989582
-0.13997424 0.034834787 0.1138125 0.015397044 0.025903817 0.05372285 0.11743822 0.056737676
-0.09995172 0.0071869735 0.21101952 0.26355487 0.071472146 0.11717322 -0.11120726 -0.057721823
-0.12265082 -0.115318425 0.14985572 -0.020672586 -0.11538533 -0.19209446 -0.19435064 -0.21124989
0.0676012 0.19174778 0.014174586 0.16061991 -0.046591964 0.011394167 0.14277194 0.034749776
-0.33122537 -0.011007236 -0.075474255 0.12560104 0.13130042 -0.14246477 0.20092663 -0.14221624
0.21763399 -0.128118 -0.012787978 0.24478948 -0.19504319 0.060722876 -0.109884016 0.0144636035
0.24308713 0.0122599015 0.03128697 -0.00042991416 0.123174414 0.030856986 0.060668502 0.05276832
0.020641567 -0.07348966 0.0030430753 0.15531772 0.03603496 0.13754442 -0.110327505 0.095122464
-0.08697434 0.21553269 0.21212181 -0.005172283 0.03469187 -0.1570511 0.108798414 0.1288261
0.07225132 0.07617703 0.039158404 0.17369649 -0.21063368 0.21170373 0.10729413 0.016260432
0.0997246 -0.05100491 0.010924119 0.06288784 0.0003842673 0.3257886 -0.049527142 0.011770619
0.09026574 0.06179726 0.0036396964 0.14551243 0.14325052 0.23408176 0.12008842 0.045825426
0.028885111 -0.12034382 0.019224348 0.15594365 0.010023983 0.13886723 0.10566767 0.084797785
-0.12409961 -0.09645674 0.26626742 0.026947506 0.07663671 -0.04032164 0.025321994 0.10335334
-0.081091896 0.07527397 0.08056818 0.14949842 0.18442102 0.045946393 -0.11219921 -0.13391708
-0.02292522 0.06844847 0.12869553 0.15234499 -0.21318029 0.059706613 0.0086623235 -0.115629256
0.051837586 0.18654257 -0.09011757 0.05201675 0.24854101 0.036444496 -0.04563893 0.169306
-0.079399765 -0.04623891 0.11415564 0.18304758 0.13318242 0.06582214 0.03695628 -0.03690237
-0.07693599 0.089886494 -0.16003168 0.048916087 -0.3102501 0.008848606 0.23791504 -0.17340662
-0.08309499 -0.24902411 -0.22724567 -0.0999893 -0.15556875 0.048522964 0.11590797 -0.14754747
0.23749727 0.03400206 -0.30104804 0.19687167 -0.09647585 -0.16763115 0.1179772 -0.18090752
0.07639287 -0.16427049 0.10792108 0.018580973 0.16371794 0.071223974 0.14388864 0.0802322
-0.00078126293 -0.03368891 0.05821639 -0.1404488 -0.031485662 -0.03715996 0.16076894 0.016407153
0.09760252 -0.011324007 -0.029533524 -0.21155335 0.17546085 0.15007886 -0.08173295 -0.09246524
0.013096744 0.01611915 -0.0006643861 0.13091406 0.3040832 -0.08414888 0.13194257 0.0917707
-0.07168158 -0.13666391 1.7953433e-05 -0.095634155 0.17980199 -0.16103725 0.18835177 0.0890785
-0.17253225 0.0074353805 -0.12839776 0.34223703 -0.1065979 0.022772864 -0.16873626 0.02172532
-0.10258014 0.11692816 0.21024643 0.057897568 0.027917191 0.030491022 0.26787862 -0.043975078
0.029440094 0.18640244 0.100155495 0.032707043 -0.03981181 0.19257149 -0.05547028 0.10239749

bn1.running_mean f4 [256]
00000000: 2bcd e5be 5bfe d7bc d678 30be 3551 71be
00000010: 0b74 9dbe 3a3b 4b3e 52ee 1e3e 9aa6 163f
00000020: 109e 1abf 5654 de3e 2a25 6b3f 3cb0 fabe
00000030: d832 9cbe dd22 18bf 2fe2 eebc 825e 1fbd
00000040: ccf3 6d3d f1d8 413f 9854 d7be 1979 813e
00000050: ea08 2e3d 18f0 353e 1d28 f5bb 3fcc 033f
00000060: f1ee 87bd 2745 613f 0930 8bbd 3487 243f
00000070: e21a 51be 4dae 6fbe 5a0f 163f b153 0dbf
00000080: a401 983e 1bb0 463e de84 8bbc 99ae 1ebd
00000090: d891 25bd 328e 29bc fdb7 5ebe 6b27 953e
000000a0: 120f fa3e c092 003e 7b6a b0bd 1b46 16be
000000b0: 03c6 423f 38c9 c7be 24eb 8d3d 944a cebe
000000c0: 4f98 3d3e 8cca 3f3f bdfb aebe c9d9 813f
000000d0: 2ca6 1bbf a44e 7ebe 54b9 093e c15c 13bf
000000e0: 5121 83be ea8c bc3e 9bb1 873d e6ea 803e
000000f0: 6517 003f 437a 703e f80d 853e cf92 18be
00000100: 0fc0 ca3d cb9b 9ebd 4013 94be de0e 80be
00000110: 5d43 613e c16c b8bc b166 a23e 1e31 d9be
00000120: 18b3 163f 2b16 623c 2040 7dbe 5403 5e3e
00000130: 47e0 513e fb37 8f3e a8df bf3c de9b 49be
00000140: 2b9f 02bf 2a86 003f e68a f13d 7474 d0be
00000150: 0cf6 0bbe 1af3 f73e 2720 8e3e 5653 00be
00000160: 2bd6 32bc 0014 f53d 7f40 d7bd 560d fe3e
00000170: e97f 72be 1a2e 633f aa5f 963d 4ba1 543d
00000180: c881 dd3c 72f2 4bbe d75c 8dbd a154 bc3e
00000190: e5b2 bcbe e669 863e e2fe bf3c 254c 213f
000001a0: 7ee1 29be 9709 803e 5940 42bd 89b1 83bd
000001b0: 7301 213f 5015 9e3b db71 8b3d 84e1 943e
000001c0: 3d8a 063f 89ff 953e fb8f f6bd 79f3 803e
000001d0: 27cc 463c 9640 a73c d8d3 85be 5a2d fcba
000001e0: 4578 0c3e 3173 b93d ee0c 983e 893f fb3b
000001f0: 26b6 aa3c 5031 adbd 3fa0 f9bd 5266 9bbe
00000200: e089 783e a47f 98be 4fb7 1cbc fff4 25bf
00000210: b053 bb3e 62dc b03e 90bb 1ebf 4516 333d
00000220: b706 52be 502d b5be 1df7 ac3e 6cb9 4bbe
00000230: 4eb3 15be 8c59 aabe a8d0 c8bd 3fc9 cd3d
00000240: 2f7c 85be d991 95bd af7b 1c3d eed3 bb3c
00000250: 71fd c2be ae29 b83d da7b 083f b255 08bf
00000260: 7794 8f3e 9e44 043e a4f5 3b3f b39a 28bf
00000270: 1b51 11bf fac5 ebbe f607 0cbf 8c9b 0e3f
00000280: 134a 01bf c4a8 8e3e fc98 db3e ed2e 1b3f
00000290: 4ee8 72bd a14b eebd e919 53be 3f44 a53e
000002a0: 04a2 82be 5edf bebc 79d1 b6bc 0b0e 05bf
000002b0: bac5 f7bd 421b 033e b3d5 e6bc d695 ea3d
000002c0: 4519 09bf 3625 b9bd d852 c3be 58c7 debe
000002d0: 0756 ce3d 90f7 11be 7260 bf3e 9c19 53be
000002e0: c962 a63e 4893 db3d 387d 1d3e 7d38 91be
000002f0: 3b38 f1be 24e8 473d c6a2 ab3b 0f03 fc3e
00000300: 44c3 b13e 4182 063e f257 a03e ba5b e4be
00000310: 8a70 423e 6dc5 1c3f 9227 3a3e 0397 a6bc
00000320: dcec 2bbf 9927 a5be e660 83bd 4c4b c63d
00000330: a37c 15bf 7434 a6bd 06de e8bd 42f0 03be
00000340: 2b2c 313f 3e32 fcbd a695 00be 3e80 023e
00000350: e8b8 023e befa abbe a65b 0b3f c722 22be
00000360: afe2 31be ecb0 633e f3bf 5c3e c47e b63e
00000370: d1af d53b 510d 273e 3ca4 803f f582 eebe
00000380: 34d2 6b3f 5e55 043e 70cf 01bd a216 fd3e
00000390: 42a2 443e 5a8f 53bf a1af a43b b578 1e3e
000003a0: dfe4 3abf 204e b3bd b8ce b93d f4e2 ac3e
000003b0: 461d 19bd 46ca fe3b 50b4 c2bd e133 b83d
000003c0: e648 b7be 48df 0b3f 545c 8b3d 82e1 e3be
000003d0: c145 313e deaa dc3e 1e11 ebbe 7365 d1be
000003e0: c173 fdbd b790 35be ef85 54be 3443 54be
000003f0: b055 913d f4dd c63e 1576 c1bd 60ea 063e
-0.44883093 -0.026366403 -0.17233595 -0.23566134 -0.30752596 0.19846812 0.155206 0.58847964
-0.60397434 0.43423718 0.9185358 -0.4896258 -0.3050754 -0.594282 -0.029160587 -0.03890849
0.05809383 0.7572165 -0.42056727 0.25287703 0.04248897 0.1776737 -0.0074815885 0.5148353
-0.06637371 0.87996143 -0.06796271 0.64268804 -0.20420411 -0.23406334 0.58617175 -0.5520583
0.29688752 0.19403116 -0.01703113 -0.038740728 -0.04042229 -0.010348843 -0.21749873 0.29131636
0.48839623 0.1255598 -0.086140595 -0.1467518 0.7608339 -0.39020705 0.06929615 -0.40291274
0.18515132 0.74918437 -0.34176436 1.0144588 -0.60800433 -0.24834687 0.13449603 -0.57563406
-0.25611356 0.3682626 0.066256724 0.25179213 0.500357 0.23484139 0.2598722 -0.14899753
0.098999135 -0.07744559 -0.28920937 -0.25011343 0.21998353 -0.022512795 0.31718972 -0.42420286
0.58867025 0.013799231 -0.24731493 0.21680957 0.20495711 0.27972397 0.023422077 -0.19688365
-0.5102412 0.5020472 0.11794071 -0.40713847 -0.13668078 0.4842766 0.27758905 -0.1253179
-0.010915319 0.11966705 -0.105103485 0.4961955 -0.23681606 0.8874222 0.07342465 0.051911633
0.027039424 -0.19916704 -0.069024734 0.36783317 -0.36855236 0.2625267 0.023436967 0.6300681
-0.16589925 0.25007316 -0.047424648 -0.064303465 0.62892836 0.004824318 0.068088256 0.29078305
0.52554685 0.2929652 -0.12039181 0.25185755 0.012133635 0.02041654 -0.26138186 -0.001923959
0.13717754 0.09055174 0.29697365 0.007667486 0.020838808 -0.08456671 -0.12188768 -0.30351502
0.24271345 -0.29784882 -0.009565189 -0.6482696 0.36587286 0.3454314 -0.6200495 0.04372241
-0.20510374 -0.35386133 0.33782282 -0.19894952 -0.1461918 -0.33271444 -0.09805423 0.1004815
-0.26071307 -0.07303209 0.03820389 0.022928204 -0.38083985 0.08992325 0.5331398 -0.5325576
0.28042957 0.129168 0.7342169 -0.6586105 -0.5676438 -0.46049482 -0.5469965 0.55706096
-0.50503653 0.27863133 0.42890155 0.6061848 -0.059303574 -0.11635519 -0.20615353 0.3227863
-0.25514233 -0.02329987 -0.022316681 -0.5197455 -0.1209826 0.12803367 -0.028178072 0.1145436
-0.53554183 -0.090403005 -0.38149142 -0.43511462 0.10075002 -0.14254594 0.3737827 -0.20615238
0.32497242 0.10721451 0.15379798 -0.2836341 -0.47113213 0.04880537 0.00523791 0.49221084
0.34719288 0.13135625 0.31317097 -0.44601232 0.18988243 0.6123875 0.18179157 -0.02033568
-0.67158294 -0.32256773 -0.06414966 0.096823305 -0.58393306 -0.081154734 -0.113704726 -0.1288462
0.6920802 -0.123142704 -0.12557086 0.12744233 0.12765849 -0.3358974 0.5443672 -0.15833579
-0.17371629 0.22235459 0.21557598 0.3564359 0.006521203 0.16313674 1.005012 -0.46584287
0.9211762 0.1292319 -0.03169197 0.4943133 0.19202521 -0.8264061 0.0050258194 0.15475734
-0.7300548 -0.087551355 0.090726316 0.33766901 -0.037381433 0.0077755777 -0.09507048 0.0899427
-0.35797805 0.54637575 0.068047196 -0.44507986 0.17311765 0.4309911 -0.45911497 -0.40897712
-0.12375594 -0.17730986 -0.20754217 -0.20728761 0.07096422 0.38841212 -0.094463505 0.13175344

bn1.running_var f4 [256]
00000000: a82e 2c3e b69c 3f3e a9b9 cd3d 50d2 413e
00000010: 18be 193f d420 0d3e d11d 6f3d 6cdc 753d
00000020: 27f4 3c3e 0f83 a43d 6648 623e 391c 2a3e
00000030: 4bae 113e 18ec a33d a8b1 eb3e bb6e d83d
00000040: f27b 7b3d 2bf6 d43e 0d54 0c3e bb78 f93e
00000050: d86c 063e 84d1 903e ee29 e63e 3f6d 9d3e
00000060: 00a9 603d 0afc 863e 94bd b03e 48da 2d3e
00000070: d15b 333e 81ed 173f fbfa 6c3e 4637 323f
00000080: 5d17 a93d d205 a63e 1be5 b33d 1816 2c3f
00000090: a3f5 ca3e e865 0b3f 83f9 f53d e1ae f13d
000000a0: 6bbe ca3d de40 843d ff02 8f3f da7c 0b3e
000000b0: a878 013e 4a0e 263e b5a8 463e a63f 953e
000000c0: 2c7b 4e3d 4ba0 893e 24e7 773d 7d72 ff3e
000000d0: bb7d 8a3e 00c2 5f3e f879 9a3e 0c95 8f3e
000000e0: 9f2c 9e3e 71cd c13d a8d1 413d b554 a93e
000000f0: 7563 083e c9dd 493e ffd0 053e 3b51 1b3e
00000100: 75f4 4d3e c5f7 743d 76e6 033e efaf 003d
00000110: d5eb 7e3d d19c a53e fbc1 923d 07d1 fd3d
00000120: a793 153f e1b6 623e 0ab7 033e b697 c43d
00000130: 44b3 5c3e d362 9b3d 336d b73d 89a3 183e
00000140: 596b 6c3e fb91 153e 5977 a03d 462f 953d
00000150: d354 213e a19b 023e 53fc 523e e5b4 493d
00000160: c586 4e3e 00cf 9b3d 4bfa 003e 4a60 483e
00000170: eab8 bc3d 8535 973e 2e1e e83d 9f53 803e
00000180: 756c c93e 8370 003e b49b 923d 7a0f e23d
00000190: dc7c 0b3e 37ea 2d3f aa28 863d ca9d c63e
000001a0: 4a9a 8f3e 0db8 673e fd9a 393e 90fd 8d3e
000001b0: aa9a ce3d cc37 9c3d 98e3 f53d ff0d 2d3d
000001c0: dfb4 993d 6df0 de3d 6219 0c3e b459 2e3e
000001d0: 2f36 fd3d 9077 b33d 612d cc3d 0f8d 2e3f
000001e0: b591 5e3e 8755 3d3f 49f7 2f3e c944 9b3e
000001f0: 0448 df3d ee92 ad3d 7b89 a73e 7545 3f3d
00000200: b48f 673e 618c 0f3e 14c5 043e 1ba8 863e
00000210: a479 403e 98ea d73e db94 b23e f5ec 2d3e
00000220: c495 4d3e 408e 943e 735b d53e 56a4 c83d
00000230: 76d1 0e3e 3112 ab3e 1e8c af3e 1495 0a3e
00000240: 981d 893e 4cc2 563e 66a6 b43e f06a 1b3f
00000250: d211 703e e4e8 0d3f 8af9 f63d 358d 563d
00000260: b9e8 9d3d f5e8 e73d 2651 173e 8682 213e
00000270: c0a0 513e eb98 ab3d e134 9e3d 96d1 b23e
00000280: 8b89 893e 9731 303d 9791 a73e 432f 883e
00000290: 5be7 963e e0a0 923e f833 cd3d c0ac 073d
000002a0: b6a7 173e dc2c a73e 8042 ac3d 07dd bc3d
000002b0: 40f6 943d 50e5 213e 6e10 b83e a4fd 373e
000002c0: a819 b63e e184 2a3d 96ad cc3e 6b29 cc3e
000002d0: 626b 2f3f 6044 cf3d 2772 973d 2990 f13d
000002e0: 1e09 0c3f 01fe b73e 4114 a83d 5bd9 9e3e
000002f0: 74c7 753d e6e2 c13d 0f61 3a3e 5568 103e
00000300: c184 4d3d 547a f73d ed20 6c3e 6124 0a3e
00000310: 5b88 eb3d a88f de3d ceb4 263e 8151 c43e
00000320: f1a0 803e 0caf 343f 32d6 a23e f3fa 6a3e
00000330: 745b 6d3d a663 ce3d 50a5 d33e 12ad ba3e
00000340: 619d 2a3e 471c eb3d a946 c63e 3d85 a43c
00000350: fa5f 5a3e 90af 2f3f 9c56 403e dca3 c13e
00000360: 317c e23e 4619 843e 21b1 703d 6baf a43e
00000370: 3979 713e b8ec 603d e988 8a3e 8388 5e3e
00000380: 613a 843e 7360 f13e dffa 123e d38f ad3e
00000390: 2337 763e 968e 853e 1feb ef3e d08c ce3d
000003a0: 6e0e 9b3e 066e 683e 45f3 de3d 5f7c 783e
000003b0: 5298 2a3d 68c3 c53e 704e 993d 920e b23d
000003c0: 9533 023f df75 e03e cb63 f23d 4684 9a3d
000003d0: 71a7 223d 7d18 d03d 521e 9a3d ad50 c43d
000003e0: 7ce3 623e 9b45 813e 7567 cc3e 2db0 573e
000003f0: 9367 823d 2254 283f 732e 5a3e 2acb 753d
0.16814673 0.18712124 0.100451775 0.18927884 0.60055685 0.13782054 0.058378045 0.060024664
0.18452512 0.0803281 0.2209793 0.16612329 0.14226644 0.08004016 0.46033978 0.10567995
0.0613975 0.4159406 0.13703938 0.48724923 0.13127458 0.28284848 0.44953865 0.3074741
0.05484867 0.26364166 0.34519637 0.16977799 0.17515494 0.5934678 0.23142616 0.6961559
0.08256409 0.32426316 0.08783933 0.6722121 0.3964053 0.5445237 0.12010481 0.11800934
0.098996006 0.06457685 1.1172789 0.13621846 0.12643683 0.16216388 0.19400294 0.29150122
0.050410435 0.26880106 0.060523167 0.49892035 0.2704905 0.21851349 0.3017118 0.280434
0.30893418 0.09463013 0.047319084 0.3307244 0.1331919 0.1971351 0.13068007 0.15167706
0.20112784 0.059806604 0.12880883 0.031417783 0.062236626 0.32346204 0.07165905 0.123933844
0.58428425 0.22140075 0.12862793 0.09599249 0.2155276 0.075872086 0.08956375 0.14906134
0.23087825 0.14606468 0.07835264 0.07284407 0.15755014 0.1275468 0.20604067 0.04924478
0.20168598 0.076078415 0.12595479 0.19567981 0.09214957 0.2953302 0.11333881 0.25063798
0.3934056 0.1254292 0.07158604 0.11038108 0.13621849 0.6793551 0.06550725 0.38792259
0.280474 0.22628804 0.1812553 0.27732515 0.100880936 0.0762783 0.12006301 0.042249676
0.075052015 0.10885701 0.13681558 0.17026407 0.1236385 0.08763039 0.09969593 0.6818399
0.2173527 0.7395863 0.17184176 0.30325916 0.10902408 0.0847529 0.32722077 0.0466971
0.22613412 0.14018394 0.12965804 0.2630013 0.18796402 0.42171168 0.34879193 0.16984923
0.20076662 0.29014778 0.41671333 0.097969696 0.1394709 0.33412316 0.34286588 0.13533431
0.2678039 0.20972556 0.35283202 0.6071005 0.23444298 0.5543349 0.120593145 0.05238076
0.07710404 0.1132373 0.1477705 0.15772447 0.20471478 0.08378776 0.077249296 0.34925526
0.2686275 0.043016043 0.32728264 0.26598558 0.29473385 0.28638363 0.10019678 0.03312373
0.1481007 0.32651412 0.08411121 0.09221845 0.07273531 0.15810132 0.35950035 0.1796785
0.3556645 0.04163063 0.39976186 0.3987535 0.6852323 0.10120463 0.0739482 0.117950745
0.5470141 0.35935977 0.08206988 0.31025204 0.060004666 0.094671056 0.18201087 0.141023
0.050175432 0.12083879 0.23059435 0.1349044 0.11500617 0.10867244 0.16279909 0.38343433
0.2512279 0.705796 0.31804043 0.22947292 0.057948545 0.100776 0.4133706 0.36460167
0.16661598 0.11480003 0.38725784 0.020083064 0.21325675 0.6862726 0.18783039 0.37820327
0.44235376 0.25800532 0.058762673 0.32165083 0.23581399 0.054913253 0.2705758 0.21731763
0.2582579 0.47143897 0.14353512 0.33898792 0.2404447 0.26085347 0.4685907 0.100854516
0.30284446 0.2269822 0.10886244 0.24266194 0.04164917 0.38625646 0.07485664 0.08694185
0.5085996 0.43839929 0.1183544 0.075447604 0.039710466 0.10160921 0.075253144 0.095857
0.22157091 0.25248417 0.3992268 0.210633 0.063674115 0.65753376 0.21306781 0.060008205

fc2.weight f4 [4, 256]
00000000: dec0 043d aaf6 6cbe c306 553e 1478 a4be
00000010: e86e 613e edb4 32be a9f6 a23e 1cc0 febe
00000020: 6be9 70bd 6686 2cbe 6801 cbbd 1ff5 a53c
00000030: b88f 8dbd 9340 eebc 549d b6be 1155 703d
00000040: 5a3a e53d 0eb1 cfbe d8c1 d23e dd3f 0abe
00000050: 1b96 043f db67 8b3d accc d1be d1c1 05be
00000060: 3cf8 85be 9bcb c73e c631 e7be 1899 243e
00000070: 52aa e0be ba14 89bd 1fcd 15bf a43e c43a
00000080: 8f8e 883e 3f5e d93d 586a bf3d e0c9 d73d
00000090: 076a 0ebc 7337 ccbe e40d 393e 6308 3e3e
000000a0: 80f1 2a3e b32a fd3c 8708 d8bd 5427 263c
000000b0: 710f 8f3e 0961 14bc 51cb 073f 429c a83c
000000c0: bc61 eb3d 416c bfbc 785e 093e 161c 83be
000000d0: 21d3 1ebe 80f8 b7be 9f54 f2bd b3f7 a93e
000000e0: 6675 76be e051 4b3e 5469 fb3d 89d6 9bbe
000000f0: 0b08 c83e e1b8 aa3e 84f2 1f3e 643d 6f3e
00000100: 9875 d0bd 91a9 02bd f065 133c 0d25 fbbc
00000110: 1212 b3be b30a 4ebe f5b1 633e 5473 733d
00000120: 28d6 3abd 5c05 a73e bdfe 543d 1317 dcbd
00000130: 422a f13c 0a37 553d 36b7 9c3d cc36 2c3e
00000140: da46 2abd d66e a53d ff10 76be ccd5 a5be
00000150: 0756 af3c d33a 9b3c 4a43 503e 93c7 e1bd
00000160: 9ed0 0b3e cf3e 8bbe c5bf f0bd 1c29 b13e
00000170: 39f1 2a3e d253 f93e b36c 953d 0649 89be
00000180: 60a9 a53e 5abe 09be 4c0c f3bc 25bb 833e
00000190: 8ac1 a1bd c77a d8bd c3b5 af3d f572 c43e
000001a0: 600c 1b3e ec00 bf3e 57c9 8e3e d8b4 c93e
000001b0: fc73 4dbe c8a0 0c3d 099a 53be 21ac 30be
000001c0: 3e71 f2bd b690 06bf 9fa5 8abe 1988 efbd
000001d0: 99de 8ebd 3476 bdbe 5424 293d f808 56be
000001e0: 1dca df3e 7947 bf3e 808c 1cbd 7f35 3fbe
000001f0: 0abe 0f3e 1c56 413e 8394 adbd 1537 32be
00000200: 822b a1be e500 043e ff75 a23e 16ca 8b3c
00000210: cd0c 04bd 1ddf f53b c4ae 86be 9717 aa3d
00000220: 52fb 3c3b ccaf b73c 8ea0 053e 3caa 5a3e
00000230: b056 99be 62e3 8b3d f5a1 2fbe 789c 543d
00000240: ea43 78bc 2d36 e3bb d5d7 b2be c442 edbe
00000250: 73e0 a0bd 8940 9a3c 4cfc 19be e33d 993c
00000260: f358 de3c 535b 13bd f911 563e 70a2 9f3e
00000270: 8233 58be 3766 963c 60f7 35bd dca3 8d3e
00000280: ccf5 0fbe 8e70 7cbe 17a1 73be 7455 3f3e
00000290: 18a1 833e 19dc bb3d 8d58 e13d 05b7 c4be
000002a0: 18d7 9a3d 073a afbe c397 c53e 93d1 6bbc
000002b0: 37ec e23e a90a 88bd 7dd6 3ebd aae7 42be
000002c0: d962 b4bd 524a 0f3d 036e 49be 10b1 253d
000002d0: 82ad 7a3e 8cb6 01be 4cfa 0dbe abbd 133d
000002e0: 5b21 a5be 2f9e b4bd 0a89 f9be 8985 00bc
000002f0: b57a 14be b3f6 753e 0b9c bd3e 9c5e ea3d
00000300: 6f37 013e 16d5 153d a0fe 113d 5c28 2f3e
00000310: c2b1 98be ded7 0ebb 383b a5be cb49 cabd
00000320: dbe8 893e 0c52 a73d 32b0 8a3e a092 f53d
00000330: b1ed 0bbe 5bae 743e bcd0 f0be 1d56 d03c
00000340: d1d8 95bc a405 a13d 16c7 94be 0193 dc3d
00000350: 4165 713d 6f5c ba3e c980 76be 13f7 883e
00000360: d07a 0fbe d4e7 903e d1e4 e53d 4314 28bd
00000370: 9c3f 07be 2dea bc3c af4a 2a3e 4f89 ebbd
00000380: 1f75 dd3e e582 18be dd37 ce3e b76d b13c
00000390: 3163 26be ece8 183e 7da6 593d 1f18 f0bd
000003a0: 2a7f 083c 8229 b53e 8627 2dbd dc38 b0be
000003b0: 702e f2bd f9c7 6f3d bce1 b73d a131 dcbd
000003c0: 54fa 80be 6cef 86be dd07 ee3c 2895 8c3d
000003d0: f7a0 3b3e 3083 4d3c feb9 3bbd b999 333e
000003e0: 2346 9cbd 5947 423e fa46 843e c0d7 573e
000003f0: 40c7 063d 10ec b33d 05d5 9bbe eda0 0b3e
0.032410495 -0.2314097 0.2080336 -0.32122862 0.22014964 -0.1745183 0.31828812 -0.49755943
-0.058816355 -0.16848144 -0.099123776 0.020258484 -0.06912178 -0.029083526 -0.35666907 0.058674876
0.1119277 -0.4056477 0.41163516 -0.13500924 0.5179154 0.06806918 -0.40976465 -0.13062216
-0.2616595 0.39022526 -0.45155162 0.16074026 -0.43879944 -0.066934064 -0.58516115 0.0014972282
0.26671264 0.10613679 0.09346455 0.105365515 -0.008692271 -0.39886054 0.18071705 0.18557887
0.16693687 0.03090415 -0.105485015 0.0101412125 0.27941468 -0.009056338 0.5304461 0.020582322
0.11493251 -0.02336705 0.13414943 -0.25607365 -0.15510227 -0.35931778 -0.118325464 0.33196792
-0.24068221 0.19855452 0.12275949 -0.30437115 0.39068636 0.33344176 0.15619856 0.23363262
-0.10178679 -0.031899992 0.008996472 -0.030657316 -0.34974724 -0.20121269 0.22235854 0.059436157
-0.04561439 0.32621276 0.05200075 -0.107465886 0.029439095 0.052054442 0.07652132 0.16817778
-0.041571476 0.08077781 -0.24029921 -0.32389677 0.021403326 0.018948948 0.20338169 -0.11024394
0.136538 -0.27196357 -0.11755327 0.34601676 0.16693582 0.48696762 0.07296123 -0.26813525
0.32355785 -0.1345152 -0.02966895 0.25728717 -0.07898243 -0.10570293 0.0857959 0.38368955
0.1514144 0.3730539 0.27887985 0.39395785 -0.20063776 0.03433302 -0.20664228 -0.17253162
-0.118380055 -0.5256456 -0.27079484 -0.116958804 -0.06976051 -0.37004244 0.04129441 -0.20901859
0.43708888 0.37359217 -0.03821993 -0.18672751 0.14037338 0.18880504 -0.08475592 -0.17403825
-0.31478506 0.12890966 0.3173065 0.017064136 -0.03223877 0.007503404 -0.2630521 0.08305281
0.0028836322 0.022422694 0.13049528 0.21354002 -0.2994895 0.06830479 -0.17151625 0.051907033
-0.015152911 -0.0069339485 -0.34930292 -0.4634 -0.0785531 0.0188296 -0.1503765 0.018706268
0.027142024 -0.035975765 0.20905294 0.31178617 -0.21113399 0.018359287 -0.04442537 0.27664077
-0.14058608 -0.24652311 -0.2379192 0.18684942 0.25708842 0.0917284 0.11003218 -0.38420883
0.07560557 -0.3422396 0.38592348 -0.014393228 0.44320843 -0.06642658 -0.04659127 -0.19033685
-0.08807916 0.034982987 -0.19670872 0.040452063 0.2448025 -0.12667292 -0.13865012 0.036069553
-0.3225201 -0.088192336 -0.48737365 -0.007844337 -0.14499934 0.2401989 0.37033114 0.114438266
0.12618802 0.036580168 0.03564322 0.1710524 -0.29823118 -0.0021796147 -0.32271743 -0.09877356
0.26935467 0.08169946 0.2708755 0.11990857 -0.13664891 0.23894636 -0.47034252 0.025431687
-0.018291863 0.07862404 -0.2905814 0.10770226 0.058934454 0.36398646 -0.24072565 0.26751003
-0.14011693 0.2830187 0.11225284 -0.041034948 -0.13207859 0.023060882 0.16630052 -0.11500799
0.4325342 -0.14893682 0.40276995 0.021658761 -0.16248776 0.14932603 0.05313729 -0.11723351
0.0083310995 0.3538323 -0.04227402 -0.3441838 -0.118252635 0.05854032 0.08978602 -0.107516535
-0.25190985 -0.2635454 0.029056484 0.06864387 0.18323122 0.012543485 -0.045831673 0.1753911
-0.07630565 0.1897253 0.258354 0.21078396 0.032904863 0.0878526 -0.30435959 0.13635607

fc2.bias f4 [4]
00000000: 89e4 1c3d 93e6 993c e221 db3c f5d3 98bd
0.038303886 0.018786704 0.026749555 -0.074623026
