checkpoint_critic.pth (torch_old, 439996 bytes, 11 tensors)

fcs1.weight f4 [256, 33]
000000 94 63 04 be 1f 9a 1c 3f 0d c2 d9 be b2 31 83 3d
       -0.12928611 0.6117267 -0.42530861 0.06405963
000010 0f 95 06 be 20 35 fb be 8b 3e 2a bf 0f cd 30 be
       -0.13142799 -0.4906397 -0.66501683 -0.17265724
000020 29 ed 1a be 24 58 ec bc 73 d1 f4 3d ec 71 97 be
       -0.15129532 -0.028850622 0.11954012 -0.29579103
000030 4f 7a 5e 3e 83 c5 85 be 2a 5d 88 3e 83 63 12 3d
       0.21726345 -0.26127252 0.2663358 0.035739433
000040 77 cb 92 3d 2c 86 54 be 4b f9 4d 3d 67 e2 61 be
       0.07167714 -0.20754308 0.050286572 -0.22059022
000050 34 13 19 be 0f a1 83 bd 23 d2 7a be 48 c6 0b bf
       -0.14948732 -0.06427204 -0.24494223 -0.5459943
000060 38 64 4c bf 91 90 3a be b4 6f 5d be c5 6f f2 3c
       -0.7984042 -0.1821921 -0.21624643 0.029594311
000070 ff 15 1f 3c 50 6c 67 bd 9b c1 a6 3b da 96 2c 3d
       0.009709834 -0.05649978 0.0050889975 0.04213605
000080 0c 5f 16 bf 99 1a 97 3e ca be 39 3f ae b4 d7 be
       -0.5873878 0.2951248 0.72556746 -0.42130035
000090 d7 ca 13 be e1 83 21 3e a5 b6 82 3e 21 3f 0a bf
       -0.14432846 0.15772964 0.25529972 -0.5400258
0000a0 39 b5 97 3e c0 a6 00 bf b1 9f a0 3c 63 47 1d 3d
       0.2963045 -0.5025444 0.019607397 0.038398158
0000b0 93 ef 38 3e f7 cb 21 be 13 90 a7 be 88 41 98 3e
       0.1806014 -0.15800463 -0.32727107 0.29737496
0000c0 0d da 9e 3d 7d c1 9e 3e 8f 1b 85 3e be 1d d4 3e
       0.07756434 0.31006995 0.25997588 0.4142894
0000d0 79 55 ac 3e d1 3f 26 3e 18 82 f7 3d 1e 26 6d be
       0.3365896 0.16235282 0.1208536 -0.23159072
0000e0 94 0c a1 be 13 99 06 3e ae d1 a8 3d 67 31 a2 3c
       -0.3145491 0.1314433 0.08243118 0.019798947
0000f0 6d 7e 52 3d 9d 05 f4 be 3a df 58 3d d3 24 bb bc
       0.0513901 -0.47660533 0.05294726 -0.022844708
000100 be 18 68 bd d7 64 9e bf bc 55 5f bf 96 b2 54 3e
       -0.05666422 -1.2374524 -0.87240195 0.2077125
000110 98 07 54 3e fc d4 72 3e 7c 7a 2f bf fc 74 19 bc
       0.20706022 0.2371406 -0.6854627 -0.00936627
000120 f2 b4 81 3e a8 34 af bd a8 2b a3 be be 40 2a bd
       0.25333363 -0.08554965 -0.31869245 -0.04156565
000130 82 4f be be 40 4f 22 be d5 00 3d bc 4e 6a 11 bf
       -0.37170035 -0.15850544 -0.011535843 -0.56802833
000140 19 da 61 be f5 3f 21 bd 20 41 89 be fa 43 d8 bd
       -0.22055854 -0.039367635 -0.268075 -0.105598405
000150 bf 86 9d be 0d 7e c6 bd c4 27 c2 3d 21 e2 94 3d
       -0.30766866 -0.09692011 0.09480241 0.07269693
000160 ac e3 87 3e d4 f0 76 bd d9 82 6c 3e c9 40 53 be
       0.26540887 -0.060288265 0.2309679 -0.20630182
000170 41 33 89 3e 34 a8 5e 3d 02 50 2b 3e 74 3f e3 bc
       0.26796916 0.05435963 0.1672974 -0.027740218
000180 8c e9 29 3d 70 d1 68 3d 88 42 8f bf 7a f7 2e 3e
       0.041482493 0.05684036 -1.1192179 0.17086592
000190 36 fd be 3e 91 5b d6 be ac b6 6d b9 9f ea dd 3d
       0.3730256 -0.41866735 -0.00022670132 0.10835766
0001a0 21 41 94 bc 64 78 04 3d a9 5b 58 bd 5e cc b5 3e
       -0.018097462 0.032341376 -0.05282179 0.35507482
0001b0 ea 0f 51 3e fe 7c e1 bc 4c e6 54 be 04 43 d3 bc
       0.20416227 -0.027525421 -0.20790976 -0.025788791
0001c0 69 48 60 3e e0 58 43 3d d9 40 4e 3e dd 7f 20 be
       0.21902622 0.04769218 0.20141925 -0.15673776
0001d0 7f d8 fe bd e7 28 18 be a5 73 d6 bd dd 48 c6 3c
       -0.12443637 -0.14859353 -0.10471276 0.024204666
0001e0 55 70 8e 3d 00 3b 0e 3e 9a 49 29 be 87 30 29 3d
       0.069550194 0.13889694 -0.16531983 0.041306045
0001f0 64 60 39 3e 58 1b 03 bf 22 b4 11 3c a8 cb 4d 3d
       0.18103176 -0.512136 0.008893045 0.05024305
000200 8c 76 a5 bc 35 62 d8 3c 12 c3 1e bd ff f8 0b c0
       -0.02019813 0.026414016 -0.038760252 -2.1870725
000210 c9 9f 06 be 72 61 3d 3e be 8e 8e 3e 14 ce 42 be
       -0.1314689 0.18494204 0.2784328 -0.19023925
000220 88 9a cb be fa be 64 3d 57 6b a5 3d c2 37 be bc
       -0.39766335 0.055846192 0.08077114 -0.023219947
000230 42 e5 5e 3d 03 eb cf 3d b0 d3 03 3e 04 9d 2f be
       0.054417856 0.10152247 0.12873721 -0.1714974
000240 de 06 ae bc 5e 5f 2f be f8 ce 82 be 86 10 f7 bd
       -0.021243509 -0.17126223 -0.2554853 -0.120636985
000250 b5 7f 66 3e ab 81 80 bd 6b 89 21 be 1d 20 1f be
       0.22509654 -0.06274732 -0.15775077 -0.15539594
000260 a1 32 30 be ed 8b 8e bb 3a b8 8f be 27 df d7 be
       -0.17206813 -0.0043501765 -0.2807024 -0.4216244
000270 3b 29 2f 3e 91 58 74 be 8c d9 7b be 2a ab 3c bd
       0.17105572 -0.2386191 -0.24594706 -0.046061672
000280 6e 54 26 be f0 f7 9f bc 16 f7 82 bc ec f7 85 3c
       -0.16243145 -0.019527406 -0.01598696 0.01635357
000290 4d 63 11 40 fd 37 12 be 85 49 97 3d 1d 2e 1b bf
       2.2716858 -0.1427917 0.073870696 -0.6061724
0002a0 e0 dd 86 be 40 3d 56 be 1d f8 f7 bd 37 0c 5c be
       -0.26341152 -0.20921803 -0.12107871 -0.21489035
0002b0 12 55 ed 3e d7 0c 48 3f 70 3d 43 3d d8 6e 30 be
       0.46353966 0.7814459 0.047666013 -0.17229784
0002c0 68 c9 32 be 2f 91 8d bd 26 23 0c 3e 00 69 0e bf
       -0.17459643 -0.06912457 0.13685283 -0.5562897
0002d0 27 e5 a4 be b8 db b2 3e 57 52 b5 3e c4 20 a8 be
       -0.3220608 0.34933257 0.35414383 -0.32837498
0002e0 67 55 87 3e 26 f2 df bd 74 2a c1 bd 5d 52 4d be
       0.26432344 -0.10934858 -0.094319254 -0.2005095
0002f0 83 66 5f 3d 86 14 91 3d 5c 25 7d be 53 4b 8b ba
       0.054541122 0.07083993 -0.24721283 -0.0010627307
000300 25 38 e2 3c 50 56 e6 be 7c 28 a9 bc a1 78 b7 bc
       0.027614662 -0.44987726 -0.020649187 -0.022396388
000310 e8 f6 68 3c 42 2a 44 3f ad 11 41 bf 2c fa b4 3e
       0.014219023 0.7662698 -0.75417596 0.35347116
000320 dc c5 2f 3e 75 16 bb be 3c 59 6c be cf 8e 20 3e
       0.17165321 -0.3654057 -0.23080915 0.15679477
000330 d8 a3 8d bd f4 1c c8 be 51 db ad be 58 2d b7 be
       -0.06916016 -0.3908459 -0.33956388 -0.35776782
000340 4e a7 9d be 84 f7 09 bf 83 22 58 3e 2a 0e 80 3e
       -0.30791706 -0.53893304 0.21106915 0.25010806
000350 44 58 2c bf 4e a3 95 3d f9 e4 20 3e 1b 4f 42 3f
       -0.6732218 0.073065385 0.15712346 0.75901955
000360 59 36 68 bd 5a d4 be 3e d7 fd 0f 3e 0a c9 fc 3d
       -0.056692455 0.37271386 0.14061676 0.12343033
000370 39 6d a2 be f5 67 00 3f 8f 40 26 3e ba d4 61 3e
       -0.31723955 0.50158626 0.16235565 0.22053805
000380 52 85 16 3e f6 3b 77 bd 1a fc 57 be c4 ae 95 bc
       0.14699295 -0.060359918 -0.21092263 -0.018271811
000390 26 84 2e 3d 10 c1 32 3c 21 b5 ba be 8e 6b 64 3d
       0.042606495 0.0109102875 -0.36466315 0.055766635
0003a0 01 96 8f 3d 1a 3d 98 bd ad 29 ba 3c 63 7c 94 3d
       0.07011033 -0.07433529 0.02272495 0.072502874
0003b0 fd a1 03 bd 7f 97 3c bd 98 2e c7 3d fd aa 85 3e
       -0.032136906 -0.046042915 0.09725684 0.26107016
0003c0 5a a8 50 bc 55 e5 34 bb 53 00 c6 bc b1 91 c3 3c
       -0.012735451 -0.0027602513 -0.024170076 0.023873182
0003d0 d4 7b 40 3e f7 a9 a3 bd 24 fe b9 be d9 6d 5a 3c
       0.18797237 -0.079914026 -0.36326706 0.013331854
0003e0 83 b1 d9 bd 43 65 58 3d 0d d5 a9 3d 26 ee 6c bd
       -0.10629561 0.052830946 0.08292589 -0.057844304
0003f0 74 92 23 3d e1 11 b9 bc 43 a7 8f bd ee 74 75 bd
       0.03993459 -0.022591533 -0.070143245 -0.059925966

fcs1.bias f4 [256]
000000 2e e8 df bd 73 88 4e bc 19 57 0a be af c8 19 be
       -0.10932957 -0.012605774 -0.13509788 -0.15017961
000010 77 a1 ab 3d 88 8c bc 3d 12 53 fa bd be 39 0b 3e
       0.08380406 0.09206492 -0.12222876 0.13596246
000020 6e 2c 06 bd f0 2c 77 3d 31 14 e3 bd 22 a4 ad bd
       -0.032757215 0.06034559 -0.110878356 -0.084785715
000030 d5 ba 56 bd bf e3 91 bd 7a be 0a 3e 1e d6 e4 bd
       -0.05242427 -0.07123517 0.13549224 -0.11173652
000040 69 1c 1a be 61 b4 55 3d 05 94 94 3d d6 9e 51 bc
       -0.150499 0.052173976 0.07254795 -0.012794217
000050 07 e3 1b be 42 bd b6 bc ab 69 8e 3d 6f 2f d6 bd
       -0.15223323 -0.022307042 0.06953748 -0.10458266
000060 cc b8 46 3c a6 bf 92 bd 69 75 19 3e 3e 4b fc 3d
       0.01212902 -0.0716546 0.14986195 0.12319039
000070 5b c5 bd 3c 7c 62 36 3d bd 3c 1f 3b aa be 17 be
       0.023165395 0.044527516 0.0024297677 -0.14818826
000080 b5 6c 0a 3d 53 18 f5 3c 93 66 9a bd f4 f5 21 be
       0.033795077 0.029918825 -0.07539096 -0.1581648
000090 c8 5b 8d 3c f9 6e fe 3d 18 31 b9 bc 3e 28 9e 3c
       0.017255679 0.1242351 -0.022606418 0.019306298
0000a0 da cb 14 bd 4f 61 3b bd e8 fa 61 3c d9 a8 21 be
       -0.03632722 -0.045747098 0.013792731 -0.15787067
0000b0 ab 0c 55 bd 39 a8 c1 3d e2 a5 92 bd c6 06 f0 bd
       -0.052014034 0.09455914 -0.07160546 -0.11720042
0000c0 c8 6e da bd 49 4f 39 bd ed 47 20 3e 5f 70 62 bc
       -0.10665661 -0.045241628 0.15652438 -0.013820737
0000d0 00 c5 11 be f9 56 40 bd f4 59 09 3e 9a fb 0b be
       -0.14235306 -0.046957944 0.1341322 -0.13670197
0000e0 6b 43 00 be 65 39 00 be 3a ce 25 3e 58 ed a3 3d
       -0.12525718 -0.12521894 0.1619195 0.08004254
0000f0 07 fd 83 3c a2 ee cf 3b f4 69 36 3d a4 8f 5f 3d
       0.016111864 0.006345586 0.04453464 0.054580346
000100 b5 79 98 bd ed 2b 27 be ef 29 a2 3d 9c b6 f3 bd
       -0.07445089 -0.1632535 0.079181544 -0.11900064
000110 50 11 7f bc 60 a7 1c bc 84 b7 7d 3d 1c b4 41 bd
       -0.015568092 -0.00956139 0.061942592 -0.047290906
000120 40 2e af 3d f0 da d3 bd 26 0e a5 bd 4d 25 13 be
       0.08553743 -0.103444934 -0.08059339 -0.14369698
000130 98 dc a2 3d 17 26 8e bd a6 3c 01 bd d4 b5 7c 3c
       0.07952231 -0.06940859 -0.03155198 0.015424211
000140 5e 57 99 3b ca fe 01 3e 7d 84 ee 3c 3b a2 15 be
       0.0046796044 0.1269485 0.02911591 -0.14612667
000150 14 47 d8 bd 6f d8 0e be 9a 75 dc 3d ac ce 2d be
       -0.10560432 -0.1394975 0.10764618 -0.1697337
000160 32 4b 0c 3e aa 4e ba bc 27 94 1b 3d 2d bf 96 3d
       0.1370056 -0.022742588 0.037983086 0.07360683
000170 c5 64 04 be 4f 7f 0c 3e 4b 2d f5 bd 9e a3 7f 3c
       -0.12929066 0.1372044 -0.119715296 0.015602974
000180 b5 9b 9b bd 14 b3 91 bc de 6c 8c 3d 0c 8d 7e 3d
       -0.07598058 -0.017785586 0.06856702 0.06214623
000190 a2 78 24 be b1 e9 b8 3d cf 78 d5 bd 75 a0 88 3d
       -0.16061643 0.09028948 -0.10423433 0.0667123
0001a0 2e 01 4c 3d d3 4f bb 3b b1 c3 26 bd ad 6b a5 bc
       0.049805813 0.005716303 -0.04071397 -0.020192945
0001b0 f9 16 01 be 3c f1 46 bd 12 35 1c be be 62 6b bd
       -0.1260642 -0.048569903 -0.1525462 -0.057467215
0001c0 c0 03 5c 3d 4c b6 23 3e 26 42 1d 3e cd 12 22 be
       0.053714514 0.1598751 0.15357265 -0.15827484
0001d0 e9 a7 ae 3c 86 65 c5 3d 4d 96 f1 bd 31 f8 d6 bd
       0.0213203 0.09638505 -0.11796246 -0.104965575
0001e0 03 6a 37 bc 3b 29 10 3e af 13 d9 bd e1 6d 24 3e
       -0.011194709 0.14078228 -0.105994575 0.1605754
0001f0 9e 9d 9c bd a8 eb 0d be 87 69 0f 3e f7 04 ac bd
       -0.076472506 -0.13859427 0.14005099 -0.083993845
000200 5a 4c d2 3d a6 26 06 be 57 ee e2 3c 9d 5c 1c be
       0.10268469 -0.1310068 0.02770154 -0.15269704
000210 4f 2c de 3d 0b c7 01 be 52 93 d1 bd 7d 01 87 bd
       0.10848295 -0.12673585 -0.10233177 -0.06592081
000220 5d 56 68 bc 30 d8 3f 3d d1 19 8b bd 5b 2e 11 bd
       -0.014180747 0.04683703 -0.067920335 -0.0354446
000230 a7 4a 1a 3d b0 51 c5 3d 9b 2b 9b bd fb 3c 1f 3e
       0.03766885 0.09634721 -0.075766765 0.15550606
000240 ad 42 01 be 4b 0e 02 be 58 7d f0 3d a0 81 6d bd
       -0.12623091 -0.12700765 0.117426574 -0.05798495
000250 26 e8 2f be 5c b3 9b 3d 97 06 9f 3d 1a a0 13 be
       -0.17178401 0.076025695 0.07764929 -0.14416543
000260 ce 0e e1 bd 7e cb cb 3c 31 bc 99 3c ca 6f 16 bd
       -0.10989152 0.024877306 0.018766494 -0.036727704
000270 8e cb 1f be e5 a2 03 be 6d 02 30 be e1 ff fc 3d
       -0.15604994 -0.12855108 -0.17188425 0.123534925
000280 59 29 f6 bd 00 cf 1c be 97 34 ac bc 84 0d 2e 3e
       -0.12019605 -0.15313339 -0.02102117 0.16997343
000290 a5 0a 28 be 79 62 79 bc 6b eb db bd aa 5e b0 39
       -0.1641031 -0.015221232 -0.10738262 0.00033639866
0002a0 e0 21 93 bd 71 77 10 3c 8f e6 1e bc 73 61 9b 3d
       -0.071841955 0.00881754 -0.009698524 0.07586946
0002b0 80 86 e0 bd 3d 93 9e bd 0a ed f7 bc 8f a4 0f 3e
       -0.10963154 -0.07742927 -0.030264396 0.14027618
0002c0 eb 93 19 bc 70 71 1e be f9 7e 24 be 6d ed d2 bd
       -0.009373645 -0.1547296 -0.16064061 -0.102991916
0002d0 0b 33 92 3c 0d 2b e1 bc 30 82 dc 3d b6 63 ad 3b
       0.017846605 -0.027486349 0.10767019 0.0052914275
0002e0 d3 fe a1 3d e7 ac f1 bd 2f de b8 bd f9 cd 6f 3d
       0.07909932 -0.11800557 -0.09026753 0.05854604
0002f0 cc 40 11 be 72 6b e1 bc f8 fa 27 bd c7 29 79 3d
       -0.14184874 -0.027517054 -0.041010827 0.060830858
000300 96 3c 15 3e 50 a4 e0 3d 32 23 2e be 4a d3 fe bd
       0.14573893 0.1096884 -0.17005613 -0.12442644
000310 49 ec ca bd 78 3f 15 3d 67 05 4c 3d 8d f6 cc 3d
       -0.09908349 0.03643748 0.04980984 0.10007963
000320 68 99 ac 3c 0f d2 2a be 15 32 00 3c 68 f8 5f 3d
       0.021069244 -0.16681693 0.0078244405 0.054680258
000330 2c b1 c0 bd 8a 1b 17 3e 81 3b 02 be ae 5b e4 bd
       -0.09408793 0.14756599 -0.12718011 -0.11150299
000340 e3 fb 82 3d f3 4e be 3d 26 02 fb bd e3 78 3f bc
       0.063957 0.09292402 -0.12256269 -0.0116865365
000350 60 db 20 bd 19 18 d2 bd c5 2e db 3d cc d0 09 3e
       -0.039271712 -0.102585025 0.1070228 0.13458556
000360 c1 5f 1d 3e e0 c9 21 3e f3 38 0f 3d 69 4b 87 bd
       0.15368558 0.15799665 0.03496642 -0.0660618
000370 47 3d 83 3d ca 16 2f 3d 1c ae 83 3d 8c 45 00 be
       0.06408172 0.042746343 0.06429693 -0.1252653
000380 b1 a5 97 3a 92 9e 6f bc d7 a0 07 be 3d e5 8d bd
       0.0011569766 -0.014625208 -0.1324495 -0.06928489
000390 fd 34 93 bc ef 50 8e bd fa 01 03 3e 6f 51 ed 3d
       -0.017969603 -0.069490306 0.12793723 0.11587798
0003a0 48 44 06 3e a9 27 f0 3d 65 3a 87 3d ad dc 71 3c
       0.13111985 0.117263146 0.06602935 0.014762086
0003b0 46 61 23 3e 0a 50 2d 3e 85 68 1e 3e 86 55 df 3d
       0.15955076 0.16925064 0.15469559 0.10904984
0003c0 63 8c 05 3e ac 91 9f 3d e2 81 ca 3d bf b1 13 3d
       0.13041835 0.077914566 0.098880544 0.036058184
0003d0 54 0c f8 3d 93 d0 07 3e de 7a d4 ba 14 9d 88 bd
       0.121117264 0.13263159 -0.0016210934 -0.06670585
0003e0 00 63 a2 3d 08 31 0c bc 1e de 15 3e ba 6f 01 3d
       0.07929039 -0.008556612 0.14635512 0.03160069
0003f0 03 b8 2f 3d de 44 ba 3d b3 e5 3f bd a1 5d aa b9
       0.042900097 0.090951666 -0.046849918 -0.00032494686

bns1.weight f4 [256]
000000 06 44 aa 3e ad 2d 95 3e 1d 66 6b 3e 69 bc f7 3e
       0.33255023 0.2913641 0.22988172 0.48385933
000010 e1 ff ca 3e e2 5a de 3c d6 c1 b5 3d 41 4f c1 39
       0.39648345 0.027142946 0.08874862 0.00036870877
000020 90 95 8e 3d 7d a4 71 3b 96 64 6d ba fe 80 6f 3e
       0.069621205 0.0036871724 -0.0009055821 0.2338905
000030 f0 ca 1b 3e 47 42 f1 3d 30 57 a6 3d 80 3d 85 3e
       0.15214133 0.117802195 0.081220984 0.26023483
000040 77 5b f7 3e b8 31 b1 3e 2d be 0b 3f 63 76 26 3e
       0.4831197 0.34608245 0.5458706 0.16256098
000050 44 fc 99 3e d0 d7 83 3e 87 f6 d4 bb c6 3a a0 3e
       0.30075276 0.2575059 -0.006499115 0.3129484
000060 b5 ea 13 3e 16 6c f3 3e c9 e7 cb 3e bd 14 4f 3e
       0.14445002 0.475434 0.39825276 0.20222755
000070 3c f0 a0 3b a0 e9 e3 3e e6 81 8b 3e e9 08 39 3e
       0.0049114507 0.4451418 0.27247542 0.18069805
000080 7c 47 b2 3e a0 6c 54 3e ff e7 fc 3e e8 0e ab 3e
       0.34820163 0.20744562 0.4939575 0.3340981
000090 24 a2 55 3e 7c 33 36 3e 37 fb 93 3e 17 0d 06 3e
       0.20862633 0.17793077 0.289026 0.13090931
0000a0 a0 66 b6 3e 94 9b a9 3e fd c5 07 3e 4d b9 17 3f
       0.35625172 0.3312651 0.1325912 0.5926712
0000b0 ee ce b5 3e f7 e9 cb 3e ce 4d 25 3a 80 6f 1b 3f
       0.35509437 0.3982694 0.0006305844 0.6071701
0000c0 99 cf 5a 3e ad 73 b8 3e aa 6e 81 3e a5 4d b2 3c
       0.21368255 0.36025754 0.25279742 0.02176554
0000d0 98 f8 ac 3e fe 2a 9a 3e a4 9c b6 3e c9 01 32 3e
       0.33783412 0.30110925 0.35666382 0.17383493
0000e0 8f 7c ac 3e 67 a8 b0 3d 12 fa d1 3e 1a 0e 83 3e
       0.3368878 0.0862587 0.410111 0.25596696
0000f0 ee 6b 5d 3e f7 63 9a ba a2 0d 9b 3e af 35 9c 3e
       0.21623203 -0.001177906 0.3028384 0.30509707
000100 d0 ca f5 3e c4 fa e5 3d 51 ff b7 3e d7 2b 0b 3c
       0.48006296 0.1122947 0.35936978 0.008494339
000110 fc 05 47 bc 5d e6 9e 3e bf 08 84 3e a6 76 f4 3e
       -0.012147423 0.31035128 0.25787923 0.47746772
000120 42 a5 9e 3e a2 2d 78 3e e0 cc de 3e f7 64 be 3b
       0.30985457 0.24236158 0.43515682 0.005810376
000130 65 ee 8c 3e 3d 43 99 3e ca 33 d7 3e 28 bf 01 3f
       0.2752563 0.2993411 0.420317 0.50682306
000140 95 a4 70 3d 2d ab c3 3e 38 49 a7 3e 0e b1 d2 3e
       0.058750708 0.38216534 0.3267305 0.41150707
000150 b7 9a e4 3d 75 59 ad 3e e3 f9 8f 3e bb 1a b5 3e
       0.11162322 0.33857313 0.28120336 0.35371956
000160 08 2f c8 3e 35 44 fa 3e 20 51 0a 3e 29 62 bf 3e
       0.39098382 0.48880163 0.13507509 0.37379578
000170 cb 56 f0 3d f5 a0 73 3e 3c 59 a6 3e df 4a 9c 3e
       0.117353044 0.23791869 0.32489955 0.30525872
000180 b0 45 c4 3e 87 62 b4 3c ef f9 20 3e 94 4d e0 3e
       0.38334417 0.022019638 0.15720342 0.43809187
000190 77 3d 6b 3e 0e 1d 09 3d d1 ff cc 3e 26 d3 94 3e
       0.22972666 0.033474974 0.40038922 0.29067343
0001a0 1f 06 d8 3e 96 da 2a 3e 13 8e 7e ba e6 75 ba 3e
       0.4219217 0.16684946 -0.0009710502 0.36418074
0001b0 4b 58 d1 3e d0 c1 bb 3e 61 c2 31 bb 9a a9 22 3a
       0.40887675 0.36671305 -0.0027123915 0.0006205082
0001c0 fe 7b 08 3e 76 f1 de 3d fd 9a b3 3e 14 b2 58 bb
       0.1332855 0.10885899 0.35079184 -0.0033065127
0001d0 60 d7 bf 3e 8f 50 91 3e bb 75 8e 3e 0c 86 a9 3e
       0.37469006 0.28381774 0.27824196 0.33110082
0001e0 55 ef 83 3e c4 e0 62 3e 53 a8 7d 3e dc 08 9f 3e
       0.25768533 0.22156054 0.24771242 0.31061447
0001f0 80 e8 c0 3e d0 e1 a8 ba a4 2b e2 3e 42 fe 24 bd
       0.37677383 -0.001288468 0.4417392 -0.04028154
000200 bc 5a 41 3e 32 cc 30 3d 2b 44 bc 3e ae 49 3d 3e
       0.18882269 0.043163486 0.36770758 0.18485138
000210 a1 9a c9 3e 71 b3 ee 3e c5 3f 11 3f 07 36 93 3e
       0.39375785 0.46621278 0.5673793 0.28752157
000220 5d 7d 09 3e bf 2c d7 3c b5 a0 bf 3e fe 98 09 3f
       0.13426729 0.026266454 0.37427297 0.5374907
000230 40 8e 7b 3d 24 45 f7 3d 66 1d ac 3e 2e 47 23 bd
       0.061414957 0.120737344 0.3361618 -0.039862804
000240 64 d3 a2 3e cb 60 47 3e f3 4c 78 bb a7 30 0d ba
       0.31801903 0.19470517 -0.0037887662 -0.0005385973
000250 37 8f 17 bb 38 e8 91 3b 6b b9 27 3e 19 35 dc 3e
       -0.0023126134 0.0044527315 0.16379325 0.4300926
000260 e6 c2 a8 3e ab 15 c8 3e df 13 b4 3c 5b e4 46 3e
       0.32961196 0.3907903 0.021982132 0.19423048
000270 66 fd 08 bc 23 f2 df 3d fb 8c 18 3e 88 bc 20 3e
       -0.008361196 0.10934856 0.1489753 0.15696919
000280 52 09 b3 3e ab b4 a8 3e 46 63 c2 3b 04 cc 71 b9
       0.34968048 0.3295034 0.0059322445 -0.00023059553
000290 c9 85 4e 3e 13 b7 86 3e 51 e8 98 3e 0c 12 5e 3e
       0.20168222 0.2631155 0.29864743 0.21686572
0002a0 95 b0 bd 3e d0 0a b2 3e 3c 7e 86 3e 91 3d aa 3e
       0.37048784 0.34773874 0.26268184 0.33250096
0002b0 6c f4 21 3c b4 76 b7 3e 57 65 89 3e 60 3c 73 3e
       0.009884935 0.3583275 0.2683513 0.237535
0002c0 2d 21 9c 3d a3 6b 69 3e 55 2b f7 3e 14 b2 a1 3e
       0.07623515 0.22794966 0.48275247 0.31581175
0002d0 3b ee b4 3e 88 b4 93 3e 63 ce c1 b8 20 db ec 3e
       0.35338005 0.28848672 -9.2414e-05 0.4626093
0002e0 6c 21 d2 3d ea d8 00 3f d4 6d 76 3e 56 21 a3 3d
       0.10260281 0.50330985 0.24065334 0.07965343
0002f0 64 3b e5 3e 90 ec b4 3e 54 4f e5 3e 7b 76 c5 3e
       0.44771874 0.35336733 0.44787085 0.38566956
000300 a0 42 cb 3d 9d a1 d1 3e 7a d0 82 3e 6a 96 a8 3e
       0.09924817 0.40943614 0.2554968 0.32927257
000310 a0 5f c7 3e bd 44 68 3e da 71 20 3e 61 b4 7e 3d
       0.38940144 0.22682472 0.15668431 0.06218374
000320 2e 7d 0b 3e b2 6e 07 3f 67 57 77 3e 45 43 16 3f
       0.13621971 0.5290328 0.24154435 0.58696395
000330 bf 9b dc 3e 1d 0e c8 bc e6 46 bc 3d 52 d9 90 3e
       0.43087575 -0.024420792 0.0919321 0.28290802
000340 1d b3 0a 3f 08 98 dc 3e bc c2 b0 3d 81 ce b8 3e
       0.54179555 0.4308474 0.08630893 0.3609505
000350 49 ef ad 3e b5 a8 56 3e 59 36 50 3e 24 f0 43 3e
       0.33971623 0.20962794 0.20333232 0.19134575
000360 da 0b 80 3e 80 38 44 3e bf da 69 3f ef 60 38 3e
       0.25009042 0.19162178 0.91349405 0.18005727
000370 61 f0 9e 3e 04 b2 0c 3f eb 6d b6 3e 00 9d ca 3a
       0.3104277 0.5495913 0.35630736 0.0015458167
000380 df 0d 8d 3e 1c eb 66 3e ac 5f a7 3e a5 6c 05 3f
       0.27549645 0.22550625 0.3269018 0.52118903
000390 ed 16 98 3e f2 d0 8c 3e 46 94 bd 3d 95 36 86 3e
       0.2970499 0.27503163 0.092567965 0.26213518
0003a0 2c 92 a1 3e f9 40 91 3e be 33 70 3e 51 fc 87 3e
       0.31556833 0.28369883 0.23457238 0.2655969
0003b0 67 7c 87 3e 7a fa b9 3d ee 8a 17 3f 04 9b 3a 3f
       0.264621 0.09080978 0.59196365 0.72892785
0003c0 50 34 32 3e 82 71 08 38 c5 4c fb 3e d3 2a a2 3e
       0.17402768 3.253064e-05 0.49082008 0.31673297
0003d0 8a bd c0 3d 32 4c 5e 3f 72 d8 7d 3e e3 54 cd 3e
       0.09411152 0.86835015 0.24789599 0.40103826
0003e0 01 2e a1 3e 72 da 87 3e ec e7 92 3e e7 8f f4 3e
       0.3148041 0.26533848 0.28692567 0.4776604
0003f0 ef b7 86 3d 6e d7 f0 3e 5f 7d 94 3e 73 05 cb 3e
       0.06578051 0.4703936 0.290019 0.39652595

bns1.bias f4 [256]
000000 f4 3e 07 bf 4f 07 fb be 5a 6c 8f be 56 2f 6a be
       -0.52830434 -0.49029014 -0.28012353 -0.2286962
000010 bf 2d c6 be 59 d8 b9 be 1f cb f6 3c 88 b0 03 bf
       -0.38706776 -0.36297873 0.030126153 -0.5144124
000020 d6 5d 00 bf 7f 3f 7c be c3 36 0d bf df 8e 9a be
       -0.5014318 -0.24633597 -0.55161685 -0.30187127
000030 35 1c e6 be 03 05 4a bd a6 b5 d8 be 87 8b cc be
       -0.44943395 -0.049321186 -0.42326087 -0.399502
000040 fb cc c6 be b8 6d e5 be bc 05 ab be 79 e6 8d be
       -0.38828263 -0.4481027 -0.33402812 -0.277149
000050 08 c4 31 bf bd 37 a2 be 53 e9 8b be 0e b6 19 bf
       -0.69439745 -0.3168315 -0.2732645 -0.6004342
000060 e9 93 05 bf cc f9 88 be 4e c2 4e 3d f0 e3 35 be
       -0.5217882 -0.2675308 0.050478272 -0.17762733
000070 a2 22 35 be 0a 67 37 bf d8 e7 e9 be 75 e8 cb be
       -0.17688993 -0.716416 -0.45684695 -0.39825788
000080 65 fc bd be e9 1d 27 3b a4 66 80 be 8b 86 0f bf
       -0.37106624 0.0025500006 -0.2507831 -0.5606467
000090 20 78 bb be 3f ac e9 3d c1 46 d3 be f6 ee 3b bf
       -0.36615086 0.114098065 -0.41264918 -0.734115
0000a0 92 0f d2 be 74 d0 ad be 14 f2 07 be 1e a8 02 3e
       -0.41027504 -0.339481 -0.13275939 0.12759444
0000b0 68 89 04 bf fb b8 a4 3d 96 8a ce be 65 c9 a3 be
       -0.51772165 0.08043095 -0.40340108 -0.3198959
0000c0 f1 05 df be 86 d4 f8 be bb 23 0e bf 5f 73 0d bf
       -0.4355922 -0.48599643 -0.5552327 -0.5525417
0000d0 89 5e 28 be cf 3c 9f be be 94 d4 be 43 8d f0 be
       -0.16442312 -0.3110108 -0.4151973 -0.46982774
0000e0 25 e2 2d 3d 2e 2e 08 bf da 15 00 bf 78 9d 0a bf
       0.042451996 -0.53195465 -0.5003334 -0.5414653
0000f0 b5 8b 70 be b9 80 27 bf f7 05 db be 80 a6 c4 be
       -0.23490794 -0.6543079 -0.42777988 -0.3840828
000100 d9 61 0b bf 49 cd 6d be fc a6 ce 3d dc d0 07 be
       -0.5444618 -0.23222841 0.100904435 -0.13263267
000110 33 79 ca be 4b 71 d2 be 66 73 b7 be d4 26 38 bf
       -0.39545593 -0.4110206 -0.3583023 -0.71934247
000120 1f cf 09 be ea 02 4e bd 89 e5 5d be 9d 44 0a bf
       -0.13457917 -0.050295748 -0.21669592 -0.54010946
000130 c6 ac 1d bf b2 c0 30 bf 27 b1 a8 be c6 da b7 be
       -0.61591756 -0.6904403 -0.32947657 -0.35909098
000140 4d 49 c8 be e9 5a 47 be 0f 82 cb be a2 17 8f be
       -0.39118424 -0.19468273 -0.39747664 -0.27947718
000150 4b b2 26 bf 24 73 01 bf f3 99 e6 be 09 af 22 bf
       -0.65115803 -0.50566316 -0.4503933 -0.6354833
000160 af 4c d5 be 14 91 21 be 9f 15 cc be 1e e1 99 be
       -0.41660067 -0.15777999 -0.39860246 -0.30054563
000170 53 3d f5 be 26 3b 3c be 03 ff 80 be 8d b4 46 3e
       -0.4789835 -0.18381938 -0.25194559 0.19404812
000180 98 a2 a6 be e3 21 fe be aa 69 da be 7b 68 b8 be
       -0.32545924 -0.4963523 -0.4265874 -0.36017212
000190 3f 9c d8 be a0 16 39 bf 7b 89 02 bf d9 2d 0f 3e
       -0.42306706 -0.7230015 -0.5099103 0.13982333
0001a0 9f 39 24 bf fa 7a 8d be a7 15 94 be ad 29 98 be
       -0.6415042 -0.27632886 -0.2892277 -0.29719296
0001b0 3b 83 a6 be 01 5e 1e bf 62 9a 0a bf 33 5c cc be
       -0.32521996 -0.6186219 -0.5414182 -0.39914092
0001c0 ab 91 1c be d3 3e bb be b7 b7 0a bf d1 16 f9 be
       -0.15289943 -0.3657137 -0.54186577 -0.4865022
0001d0 d3 f9 a9 bd 59 d2 e5 be d8 4c 50 be 4d 6b 21 bf
       -0.08299603 -0.44887045 -0.20341814 -0.63054353
0001e0 8a d5 9a be 52 9c 5c be 3b 99 bb be 7d 3a 11 bf
       -0.30241042 -0.21544006 -0.36640343 -0.5672987
0001f0 09 90 08 bf 4d d8 2b be c9 c6 14 bf 53 c7 25 bf
       -0.5334478 -0.16781731 -0.5811582 -0.6475727
000200 e2 77 69 3e c3 5a d5 be b9 92 1a bf 58 01 37 bf
       0.22799638 -0.41670808 -0.6038013 -0.71486425
000210 19 cf 24 be 8f 74 af be 54 12 32 bd 23 bb 7d be
       -0.16094626 -0.34268615 -0.04347451 -0.24778418
000220 92 22 24 bf 77 16 a7 be cd 31 69 3d a1 97 25 bf
       -0.6411525 -0.32634327 0.05693226 -0.6468449
000230 05 26 94 be 9f 73 d6 be 0c 26 e5 be b4 03 f6 be
       -0.28935257 -0.41885087 -0.4475559 -0.480497
000240 14 d6 ce be 90 2d 42 bf 0d 34 96 bc b8 f2 9d be
       -0.40397704 -0.7585077 -0.018335367 -0.30849242
000250 74 e6 fd be da a1 91 3e cb 92 1c bf b1 98 14 3e
       -0.49589884 0.28443795 -0.6116149 0.14511372
000260 9d 84 00 bf eb eb ea be f8 63 6b be 04 13 79 be
       -0.5020235 -0.45883116 -0.22987354 -0.2432366
000270 b3 e2 cf be 7c c0 e5 3d 48 cf 9a be a1 09 f0 be
       -0.40602645 0.11218354 -0.30236268 -0.46882346
000280 ed 94 11 bf 3f 52 d1 be bf ea 0b bf 5c 0f e2 be
       -0.5686787 -0.4088306 -0.5465507 -0.44152343
000290 c5 2d 94 be 09 92 a2 be 3d 4b 0e bf 83 90 a9 bc
       -0.2894117 -0.3175204 -0.55583555 -0.020698791
0002a0 b8 27 12 bc 93 5a 88 be ae 58 1a 3e 67 36 fc be
       -0.0089206025 -0.26631603 0.15072891 -0.49260256
0002b0 44 44 21 bf e3 44 15 bf 69 d0 ab be 42 73 80 bd
       -0.6299479 -0.5830824 -0.33557442 -0.06271984
0002c0 17 a1 84 be bd 6e 9b bd b4 b8 f4 bd f7 94 2f bf
       -0.25904152 -0.07589481 -0.11949292 -0.6858668
0002d0 fa 05 0c bf 6b 7b cc be 4e cd 95 be 3c 92 82 be
       -0.5469662 -0.3993791 -0.29258198 -0.25502193
0002e0 84 b2 09 bf de 3d f0 be 02 4b bd be f2 85 03 bf
       -0.5378802 -0.469222 -0.3697129 -0.5137626
0002f0 58 aa 5e be 82 2c e5 bc bd 27 be be 8e d2 b7 be
       -0.21744668 -0.027975325 -0.37139693 -0.35902828
000300 54 a1 03 bf 98 c3 56 be 73 1c 7d 3e 3e 5f da be
       -0.5141804 -0.2097305 0.24717884 -0.4265079
000310 22 da 05 bf 34 ce d3 be 61 70 f8 be d4 59 86 be
       -0.5228597 -0.41368258 -0.48523238 -0.26240408
000320 05 62 a0 3e 2b 3e c4 be 4d 08 24 bf 0d 55 fd be
       0.31324783 -0.3832868 -0.64075166 -0.4947895
000330 7e f4 f4 be d5 70 bb be 85 1d d0 be 35 65 11 bf
       -0.47842783 -0.36609522 -0.40647522 -0.56795055
000340 47 21 cc be 41 99 77 be ec aa 07 bf 04 fa a0 be
       -0.3986914 -0.24179555 -0.5299518 -0.31440747
000350 95 b5 9a be 2a d9 b0 3e 64 66 b7 be 0f 80 9a 3d
       -0.3021666 0.34540683 -0.35820305 0.075439565
000360 e6 35 1c bf 98 53 50 bc f6 df ad bd 29 36 6c be
       -0.6101974 -0.012715243 -0.08489983 -0.23067535
000370 be 70 27 be 24 4b 08 3e ff d6 06 bf cc ad 01 bf
       -0.16351601 0.13309914 -0.5267181 -0.5065582
000380 d6 c9 e6 3d a1 4e e1 be e5 38 85 be e5 49 dc be
       0.11268966 -0.44005302 -0.2601997 -0.43025127
000390 d6 81 e9 be dd 5f 10 be e5 39 b8 be 91 84 6d be
       -0.4560687 -0.14099069 -0.3598167 -0.23195101
0003a0 5e 55 ee be ad 0c 2a bf 31 11 88 be 08 56 d2 be
       -0.46549505 -0.6642559 -0.26575616 -0.41081262
0003b0 4a df 57 be 39 1d e3 be 9c d2 15 bf 40 53 0b 3d
       -0.21081272 -0.44358233 -0.5852449 0.03401494
0003c0 57 bd f1 be d4 71 10 bf e2 c4 dc bd 40 5e da be
       -0.47214767 -0.5642369 -0.1077974 -0.42650032
0003d0 ec 83 86 be 22 fb f6 be f9 34 9d be 83 ac 63 3e
       -0.26272523 -0.48238474 -0.30704477 0.22233777
0003e0 d5 c9 82 be 0b 8f 8a be 1a a3 62 be b7 7d 2e bf
       -0.2554461 -0.27062258 -0.22132531 -0.68160576
0003f0 aa b8 79 be e6 36 bb bc 17 51 d2 be b3 8c 3d bf
       -0.2438685 -0.022853326 -0.41077492 -0.74042815

bns1.running_mean f4 [256]
000000 b8 e0 1e c0 93 b2 4b c0 b0 4b 7d 3d 27 ec 83 bf
       -2.4824657 -3.1827743 0.06183976 -1.0306443
000010 4f b6 4d be 30 dc 34 3f c1 f3 96 3e 4b 2e 06 3d
       -0.20089076 0.7064848 0.29482844 0.032758992
000020 60 c5 1b 3f 93 f2 ce be ae c1 70 be 0f 02 7e be
       0.60848045 -0.40419444 -0.23511383 -0.24805473
000030 28 94 0e 40 0b ac d2 bf 2e 46 68 3e 0d d6 e1 bf
       2.2277927 -1.6458753 0.22683021 -1.7643448
000040 3d cf b4 bf 26 4e fb bf c6 28 0a bc b4 2b 09 bf
       -1.4125744 -1.9633224 -0.008432573 -0.5358231
000050 30 42 04 c0 ed ca 42 bf fa 2d c9 be b2 b6 63 bf
       -2.0665398 -0.7609089 -0.3929289 -0.88950646
000060 f1 5a 49 bf 88 0c 45 3e f3 34 27 3e 2b de 00 40
       -0.7865439 0.19243062 0.16328792 2.01356
000070 93 1f 04 3f b4 f0 3d c0 ef 28 d8 c0 d3 64 22 bf
       0.5161068 -2.9678164 -6.754997 -0.63435096
000080 7d c2 d0 be 65 40 c8 bf 5b 13 ef 3c d5 25 17 bf
       -0.40773383 -1.5644652 0.029184034 -0.590421
000090 13 cc df c0 7f f6 68 bf c6 ae d7 3f 54 81 39 bd
       -6.9936614 -0.91001123 1.6850212 -0.045289353
0000a0 32 bc b1 bf 7e d8 65 c0 27 ee a9 bf 47 a0 6c be
       -1.3885558 -3.5913386 -1.3275803 -0.23108016
0000b0 34 c7 48 bf a9 33 81 3f 6b e8 78 3d 1d b5 a9 3e
       -0.7842896 1.009389 0.060768526 0.3314599
0000c0 8d be 61 3e f3 58 53 40 25 e0 8a bf a1 83 ba 3f
       0.22045346 3.302304 -1.0849653 1.457142
0000d0 6b 64 91 bf 83 63 99 be 80 fd 81 3c fe 97 7f be
       -1.135877 -0.29958734 0.015867949 -0.24960324
0000e0 14 95 aa 3f 28 49 77 3e 02 b4 86 bf d4 c1 c9 be
       1.3326745 0.24149 -1.0523684 -0.39405692
0000f0 91 0a e2 bf 94 ca ac bf ca 9d cd be 62 14 ba 3e
       -1.7659475 -1.3499322 -0.40159446 0.36343676
000100 86 65 56 3f 50 c4 5c 3f 3f f3 a4 3f fe da d7 bc
       0.8374866 0.8623705 1.2886733 -0.02634954
000110 7c 7d 75 be 98 ac 5f 3f 63 02 d2 3f b2 ec 9a 3e
       -0.2397365 0.8737273 1.6406978 0.3025871
000120 23 d7 6f 3f 9a f1 97 3f 68 0c c8 bf 38 15 9a be
       0.9368765 1.1870606 -1.5628786 -0.30094314
000130 c6 e1 2c c0 1c bb 4b c0 1b 2e dc 3f ee cc a7 be
       -2.70128 -3.1832952 1.720157 -0.32773536
000140 e5 0f 03 40 56 3c bf 3f e4 50 f6 3e 6b c0 98 be
       2.0478451 1.4940288 0.4810859 -0.29834303
000150 6f 5a a2 3e 3a 49 f2 3f a0 bc 99 bf 22 1b c8 bf
       0.3170962 1.8928597 -1.2010689 -1.563328
000160 59 38 15 40 b7 d4 21 3f 7e 11 27 40 75 72 2a 3f
       2.3315642 0.632152 2.6104426 0.665809
000170 0a d4 73 3f 92 71 14 be 3c b6 19 3e 22 45 99 3f
       0.9524542 -0.14496449 0.15010923 1.1974223
000180 54 fb 74 bf 45 3f f5 bf 11 ca 04 3e 7e 8a c9 be
       -0.95695996 -1.9159933 0.12967707 -0.39363474
000190 8b 14 ae bf 4b a2 0d 3f 47 b8 05 bd 87 e1 2c bf
       -1.3600019 0.55325764 -0.032646444 -0.6753163
0001a0 88 bb 1e 40 27 9f 97 c0 32 7b 9c 3e 02 3a 05 be
       2.480196 -4.738178 0.3056274 -0.1301041
0001b0 de 4d 84 be bf 08 6a bf 9e 0c 52 3e af f2 d9 3e
       -0.25840658 -0.91419595 0.20512626 0.42567965
0001c0 2f 78 1e 3f c6 5d 7b 3f 18 96 59 3e 63 9a 15 bf
       0.61902136 0.9818996 0.21248662 -0.584387
0001d0 fb a9 9d 3b 4d 62 89 be 3b 3b 66 bf 5f 6d 6c bf
       0.004811523 -0.2683281 -0.8993413 -0.9235439
0001e0 90 23 8f bf 35 d8 cf 3f 64 14 f7 bf 2c 60 74 40
       -1.1182728 1.6237856 -1.9303098 3.8183699
0001f0 c6 91 01 bf f5 29 2a be a8 58 97 3f 88 a4 49 be
       -0.5061306 -0.16617568 1.1823931 -0.1969167
000200 df da 46 3f c7 14 b6 bc c6 bb 17 3f 24 4a b3 3f
       0.7767772 -0.022226704 0.59270895 1.4007001
000210 87 97 5f bf f9 f1 84 bf ba 3a b3 3e d6 7d 21 bf
       -0.8734059 -1.0386344 0.35005742 -0.63082635
000220 7e de 0a 3f 04 b3 83 3f 71 86 ff 3e 7e 4e a5 bf
       0.54245746 1.0289006 0.49907258 -1.2914579
000230 15 5d 0d c0 9b 90 f1 bf 1f 40 4e 40 b4 17 ee bf
       -2.2088063 -1.8872255 3.2226636 -1.8600984
000240 9c 65 1b 40 64 4c 21 c0 1f 87 d0 3d f8 bc 02 bf
       2.4280767 -2.5202875 0.10182022 -0.51069593
000250 7e 86 b2 bf c7 7b 11 40 82 a0 3c bf de b6 06 3e
       -1.3947294 2.2731798 -0.73682415 0.13155696
000260 c6 3b c3 be e9 50 17 be eb b5 18 3f 44 cf 66 be
       -0.3813154 -0.14776959 0.59652585 -0.22540003
000270 cb 14 1b c0 66 be cf 3f c2 6e 97 3e 85 3d 67 c0
       -2.423144 1.622998 0.2957669 -3.6131299
000280 27 ee 72 c0 cf 0f c5 3f c7 e3 89 be ec e1 63 3f
       -3.7957857 1.5395449 -0.26931593 0.89016604
000290 80 89 a9 3f ea 81 e7 3d 3a 3a c6 3f 63 be 81 be
       1.3245087 0.11304076 1.5486519 -0.25340566
0002a0 59 14 f0 3f 50 6f fe 3d ad 1f 3c 40 d4 1a c9 be
       1.875621 0.12423575 2.9394333 -0.3927828
0002b0 2a 27 83 3d 60 11 85 40 1f e4 8b c0 e9 cb 46 40
       0.06403954 4.158371 -4.371597 3.1061957
0002c0 d2 c2 9d 3f 6c dc 58 40 c7 47 d1 3e ad 2f f6 3e
       1.232508 3.3884535 0.40875074 0.4808325
0002d0 c4 81 24 3f 44 61 99 bf ff 19 07 3f 97 0e bd 3f
       0.64260507 -1.1982808 0.5277404 1.4770077
0002e0 c5 4d df bf 84 91 a9 bf fc a9 98 c0 7f 3c bb 3f
       -1.7445608 -1.3247533 -4.77075 1.4627837
0002f0 33 48 0c 3e 13 db b6 3f b4 3e b6 bf c0 12 76 be
       0.13699417 1.4285606 -1.4237885 -0.2403059
000300 2a f6 07 3f 83 38 3c bf e8 17 d5 3f 28 ba d1 bf
       0.5310999 -0.7352373 1.6647921 -1.6384935
000310 43 87 b8 be d9 d6 90 c0 16 92 08 3f 2d d7 89 3f
       -0.36040697 -4.5262265 0.5334791 1.0768791
000320 13 47 a8 3f 46 19 a8 be c2 32 f3 bf b4 99 04 bd
       1.314669 -0.32831782 -1.8999865 -0.032373145
000330 98 7e 9d bf f9 64 0b bf eb 53 d3 3f e4 0f ae bd
       -1.2304258 -0.5445095 1.6509985 -0.08499125
000340 75 16 e8 be 58 81 8e bf d8 6c 1d c0 b2 a9 ba bf
       -0.45329633 -1.1133223 -2.4597683 -1.4583037
000350 87 cb 4e bf d8 55 ea 3f eb 6b a3 bf cf 95 dd 3f
       -0.8077931 1.8307447 -1.2767309 1.7311343
000360 8d 0d 7e c0 f4 f4 c0 3f a5 d0 58 bf c7 1f 26 40
       -3.969577 1.5074754 -0.84693366 2.5956895
000370 31 41 4b 3f 3a 11 5a bf bc 7b d0 3e 0d 96 8f bf
       0.7939635 -0.85182536 0.40719402 -1.1217667
000380 a8 b7 e8 3f bd c5 42 3f 6e 31 17 3f 66 16 b2 3e
       1.8181047 0.76082975 0.590598 0.34782714
000390 fa 01 32 be 72 56 08 bf 5e 52 2e bf b6 b7 0e be
       -0.17383566 -0.53256905 -0.6809443 -0.13937268
0003a0 43 44 03 bf b9 c2 b2 bf 0e 73 18 3f af aa 1f be
       -0.51276034 -1.3965675 0.5955056 -0.15592454
0003b0 bc b2 2a 40 b6 a9 4c c0 d4 b7 65 bf e9 be b9 3e
       2.667159 -3.1978583 -0.89733624 0.36278465
0003c0 0d d3 00 bf 2f c1 8b 3e 85 d4 14 bf 87 a8 2b bf
       -0.5032204 0.27295825 -0.5813678 -0.6705403
0003d0 f6 c5 ed be 18 df eb 3e 53 d6 0d 3f 07 26 e3 be
       -0.46440095 0.46068645 0.5540516 -0.4436495
0003e0 dc 9e 9a bf 4c 31 0d c0 43 81 ad be b4 b9 0e c0
       -1.207973 -2.2061338 -0.3388768 -2.2300844
0003f0 b2 97 35 40 74 6a 17 3f 35 f2 72 c0 ae 76 39 3f
       2.8373837 0.5914681 -3.7960331 0.72446716

bns1.running_var f4 [256]
000000 c9 a7 44 41 23 e0 48 41 26 fe 32 41 99 52 a3 40
       12.290963 12.554721 11.187048 5.1038327
000010 22 37 29 41 ef 14 f1 41 c6 5c 8e 40 ff c4 61 41
       10.57596 30.135221 4.448825 14.110595
000020 a6 21 d9 41 6a 1e a8 41 66 2b 7b 41 ab 89 72 40
       27.14143 21.01485 15.698095 3.7896526
000030 ee 19 dc 40 65 63 7d 40 44 f0 5a 42 25 7c d5 40
       6.8781652 3.9591916 54.734634 6.6714044
000040 74 7a 0a 41 72 4e 7d 41 5b ea a4 40 e1 d0 a6 40
       8.654896 15.831652 5.153608 5.212998
000050 9f 6b a3 41 39 17 70 41 b6 c5 c7 41 18 68 d5 40
       20.42755 15.00567 24.971539 6.6689568
000060 0d 2e 26 41 cc cd b2 40 df 14 ac 40 8c ae 6f 40
       10.386243 5.5876217 5.3775477 3.7450285
000070 fe 2b 6a 41 04 05 eb 40 5c f5 71 40 1b 1d 75 41
       14.63574 7.3443623 3.7806005 15.319606
000080 6d 35 26 41 fe 01 ea 40 2f 3c b6 40 98 96 65 41
       10.388043 7.312743 5.6948466 14.349266
000090 01 e6 a3 40 a5 36 86 40 90 c5 97 41 27 fb 92 41
       5.1218266 4.1941705 18.971466 18.372633
0000a0 39 4c 48 41 7b eb 69 40 e3 65 b9 40 a7 b4 c4 40
       12.518609 3.6549976 5.7936873 6.1470523
0000b0 8f 1a a3 40 ca d0 a7 40 e4 3a 5a 41 f8 c8 b0 40
       5.096992 5.244237 13.639378 5.5245323
0000c0 66 4c c6 40 3b c0 8d 40 c7 c4 98 40 b5 5e d8 41
       6.196826 4.4297156 4.7740207 27.046244
0000d0 ec 16 9a 3f 2a e7 d6 40 31 78 d2 40 25 72 07 41
       1.2038245 6.7157183 6.577172 8.465367
0000e0 ac 1c 87 41 23 f4 8d 41 67 a9 ba 40 cf 75 75 41
       16.889 17.744207 5.833179 15.341262
0000f0 cf 10 71 41 0e 08 df 41 46 47 c4 40 f3 a8 7b 41
       15.066604 27.878933 6.1337004 15.728747
000100 d6 db a2 40 f5 c4 08 41 f9 8b 2b 41 1d 7b 5d 41
       5.0893354 8.548085 10.721673 13.842557
000110 93 56 f6 41 9f 09 09 41 a0 be ac 40 ed b8 70 41
       30.792273 8.564849 5.3982697 15.045148
000120 b8 f9 17 41 27 6b 15 40 42 a3 b4 40 16 46 d8 41
       9.4984665 2.334665 5.644929 27.034222
000130 2e 94 4a 41 5c bd a4 41 4d 57 75 3f ed 21 92 40
       12.661177 20.59246 0.95836335 4.5666413
000140 ff 2c 0e 42 ff 8f c8 40 fd f7 1a 40 3c b2 af 40
       35.54394 6.2675776 2.421386 5.490507
000150 ab eb a2 41 ad 85 42 41 50 b8 d3 40 d8 08 4a 41
       20.365072 12.157636 6.616249 12.627159
000160 14 10 51 41 5c da 96 40 08 95 89 41 7c d9 97 40
       13.066425 4.714155 17.19777 4.7452984
000170 35 c8 81 41 46 91 73 41 ab f1 8b 41 17 e7 21 41
       16.222757 15.222967 17.493002 10.118918
000180 f9 23 ca 40 23 64 cd 41 7f 8b 3b 41 c6 83 8c 40
       6.316891 25.673895 11.721557 4.3910856
000190 91 f2 3d 41 24 0f f5 41 21 9b bc 40 49 c9 55 41
       11.87172 30.632393 5.8939366 13.361642
0001a0 bc 13 8a 41 f7 00 e1 40 11 26 5d 41 f7 58 9e 3f
       17.259636 7.031368 13.821794 1.23709
0001b0 d3 31 cd 3e 3b 2b d6 40 d5 9a c6 41 71 04 8c 41
       0.40077075 6.692777 24.825602 17.502169
0001c0 99 96 85 41 2c 93 ab 41 e7 76 b3 40 5a f4 aa 41
       16.698534 21.446861 5.6082644 21.369312
0001d0 6d 68 09 3f 9f 07 80 41 d3 b6 3b 40 09 1a 4d 40
       0.53674966 16.003721 2.9330337 3.204714
0001e0 2b 61 3e 3f e4 c8 16 40 0d 8f 1f 41 70 09 64 41
       0.74367017 2.3560114 9.9724245 14.252304
0001f0 f2 39 d3 41 b1 e5 1c 41 3d 98 41 40 42 a8 15 42
       26.403294 9.806077 3.024917 37.414314
000200 14 91 39 40 f6 a7 ab 41 7f 14 d9 40 81 4c e4 41
       2.8994799 21.457012 6.783752 28.537355
000210 9f 3f 78 40 c7 27 f3 40 01 36 d0 40 dc e9 dd 3e
       3.8788831 7.5986056 6.5065923 0.43342483
000220 cc 93 f6 40 52 3d 06 42 f0 ed 31 40 77 35 e0 41
       7.7055416 33.559883 2.7801476 28.026106
000230 de e0 8d 41 5e 26 3c 41 20 80 0f 41 78 55 32 41
       17.734798 11.759367 8.9687805 11.145866
000240 29 e0 21 41 57 02 16 42 3a 5f f4 40 30 74 6a 41
       10.117227 37.502285 7.6366243 14.653366
000250 15 2c c5 41 65 af 9e 41 26 f9 88 41 17 21 da 40
       24.646524 19.835642 17.121655 6.8165393
000260 5e 51 d9 40 a7 e9 4e 40 22 77 c1 41 a5 21 58 40
       6.7911825 3.233011 24.18317 3.3770535
000270 3f 0f bd 41 b0 e7 1e 40 7b 68 1f 41 52 ac 8d 41
       23.632444 2.482891 9.963008 17.70914
000280 5a 3f a1 41 8b 0e a8 41 32 ef 01 42 6f 1d c6 41
       20.155933 21.007101 32.48359 24.764372
000290 27 fe b7 41 58 e3 92 41 67 29 6c 41 60 7b 95 41
       22.999098 18.361008 14.760108 18.685242
0002a0 00 1a 12 42 35 7f 08 3f cc e2 c8 40 a1 4f 80 41
       36.52539 0.533191 6.277685 16.038881
0002b0 7a c6 1f 42 69 9b 9c 41 bb bd 1f 41 69 99 6c 40
       39.943825 19.575884 9.983821 3.6968634
0002c0 6d ea bf 41 a8 86 03 41 dd 49 06 41 2a 11 6f 41
       23.989466 8.220375 8.393033 14.94169
0002d0 e0 6e 57 40 00 07 88 41 a8 1b 50 41 74 4a ab 40
       3.3661423 17.003418 13.006752 5.3528385
0002e0 98 cd 3c 41 45 b4 8c 40 77 ec 1e 40 2a 06 b0 41
       11.800194 4.3970056 2.4831827 22.00301
0002f0 c7 db 9a 40 17 4a 86 40 49 b6 5d 3f 5a 03 2f 41
       4.8393283 4.196544 0.8660627 10.938318
000300 9c ee 5c 41 c4 2d 21 41 98 03 c6 40 4f ed fb 40
       13.808254 10.073673 6.1879387 7.8727183
000310 35 31 50 40 fd 62 55 41 f3 2f a8 41 e3 49 eb 41
       3.2530034 13.336667 21.023413 29.411077
000320 25 03 ab 40 44 1e ac 40 0e 62 c3 41 1b dc 97 40
       5.344134 5.3786945 24.422878 4.7456183
000330 0e e0 53 41 9a 88 f3 41 c2 a9 90 41 3b 02 a9 41
       13.242201 30.4417 18.08289 21.12609
000340 c0 19 96 40 65 38 5b 3f 04 19 49 41 e2 10 bf 40
       4.6906433 0.85632926 12.568607 5.970811
000350 c8 15 a3 41 ba cc d9 40 6c 66 10 41 8c a4 fd 3f
       20.385635 6.806241 9.025005 1.9815841
000360 2e cb 17 41 42 03 4f 41 ba 26 7c 40 ed be 95 40
       9.487104 12.938295 3.9398637 4.6795564
000370 79 31 ab 40 24 38 52 40 27 6d 88 41 56 45 de 41
       5.349789 3.2846766 17.053297 27.783855
000380 c2 3e 65 41 0e 5e c0 40 d8 bd 8a 40 39 98 e4 40
       14.327822 6.0114813 4.3356743 7.143582
000390 af b3 6f 41 db af 70 3f 39 cc c0 41 55 5f 19 41
       14.981368 0.94018334 24.099718 9.585774
0003a0 19 41 a4 41 6f f5 9a 41 db 6a aa 41 85 22 5e 41
       20.531786 19.36984 21.302176 13.883428
0003b0 90 05 15 42 df 2c 62 41 f2 1a a8 40 80 c7 80 40
       37.255432 14.135955 5.253289 4.024353
0003c0 d4 3e 37 41 c9 07 ae 41 05 2b 2e 3f e7 2e ba 40
       11.452839 21.753801 0.6803439 5.8182254
0003d0 23 2d c9 41 85 e7 b0 40 a9 33 8a 41 e9 68 81 41
       25.14704 5.5282617 17.275225 16.176226
0003e0 e3 a0 e9 40 ba 0d b7 40 e8 5d a3 41 01 97 14 40
       7.3008895 5.7204256 20.420853 2.3217165
0003f0 5e 22 ee 40 4b c6 f1 40 e0 44 87 41 d2 a5 5a 41
       7.441695 7.5554557 16.90863 13.665483

fc2.weight f4 [256, 260]
000000 f1 35 a0 3e a5 a9 ec bc ed 85 f7 be f3 17 19 bf
       0.31291154 -0.028889487 -0.48344365 -0.5980217
000010 c1 ab 06 be 16 ee bd bd c3 ff d7 bd f6 d3 95 3e
       -0.13151456 -0.09273927 -0.105468296 0.29263276
000020 f6 84 04 3c 17 79 98 3d 9a 49 90 3e 6a 53 09 bf
       0.008088341 0.07444971 0.28181154 -0.53642905
000030 a2 90 d8 bd f1 e7 06 be 9b 80 f2 3d ed 55 e2 3e
       -0.105744615 -0.13174416 0.11840936 0.4420618
000040 14 dc 22 3f 61 22 f6 be 25 fd b5 be cd 72 8b 3b
       0.6361706 -0.48073104 -0.35544696 0.0042556287
000050 1d bd 06 bf 2a 14 ce be d6 62 0c 3e c5 2a c5 bd
       -0.52632314 -0.4024976 0.13709578 -0.09627298
000060 ae c9 5f be 5f 5d 72 bd 47 27 13 bf 7c 22 66 be
       -0.21854278 -0.059171077 -0.5748181 -0.22474092
000070 59 1f df 3d de ee 3a 3e 45 66 4f 3d 2f 1f 31 3e
       0.10894651 0.18255183 0.05063464 0.17297052
000080 68 92 69 bf d4 7f 30 bf f2 1f 7b be 83 d3 07 be
       -0.91239023 -0.6894505 -0.24523905 -0.13264279
000090 d4 4b 23 bd 95 7e 9e be 13 ac 21 3e 05 7f 21 3e
       -0.039867237 -0.3095595 0.15788297 0.1577111
0000a0 91 03 26 bf 1c 11 56 3e 7e 47 f2 be 18 15 26 bf
       -0.6484919 0.20904964 -0.4732017 -0.64875937
0000b0 cd 78 95 3e 13 0f a3 be be 45 61 3e a1 d4 3a 3e
       0.29193726 -0.31847438 0.21999261 0.18245174
0000c0 c7 cc ab 3d c6 f8 23 3e 35 6f 52 bf a6 87 12 be
       0.083886676 0.16012868 -0.8220094 -0.14309558
0000d0 72 6c 81 3a 2b 47 6e bf ed ae 13 3d e9 f1 cb bd
       0.0009874238 -0.93077344 0.036055494 -0.0995825
0000e0 97 5d e7 be 7a 59 b2 3d 57 ee 33 3e 33 92 a1 be
       -0.4518859 0.087084725 0.17571388 -0.31556854
0000f0 bd 27 15 be af b9 9f 3e 12 fa f3 bc bd 3e 11 bf
       -0.1456594 0.31196353 -0.029782329 -0.56736356
000100 c8 f3 6f be e1 7f 05 3f 00 cc 7d 3e ca 7a ae 3d
       -0.23432839 0.5214825 0.24784851 0.08519514
000110 80 90 79 3e f6 b9 7f be 06 23 19 be bb 29 59 bf
       0.24371529 -0.24973282 -0.14954767 -0.848293
000120 df 36 94 be af 42 a6 be 8a 70 2e be 90 69 7f be
       -0.28948113 -0.3247275 -0.17035118 -0.24942613
000130 4a 34 c6 bd 02 8a 41 3e 4f 3e 15 bf fe 42 81 bd
       -0.09677942 0.18900302 -0.582982 -0.06311606
000140 9f 97 8c 3e 9b c1 23 bf 65 ad 86 be 63 75 ff 3e
       0.27459428 -0.63967294 -0.26304165 0.49894246
000150 82 2b 65 3e b4 8d 7c be 1b 9f 89 3e 66 f5 51 3e
       0.22379878 -0.2466343 0.268792 0.20503768
000160 8e fc 07 be cd 50 a5 be cb 58 22 bf 23 c3 e0 3d
       -0.13279936 -0.3228821 -0.6341674 0.109747194
000170 59 5d ed 3d c6 df 55 bf 81 3a 98 be 98 d3 44 be
       0.1159007 -0.83544576 -0.29732135 -0.19221342
000180 27 60 29 be dd 34 e8 3e 60 c5 18 3f 3b fb e6 3c
       -0.16540585 0.4535283 0.5967617 0.028195968
000190 43 3f 66 be fe 57 c6 3e 76 6f c1 be 7e de db bb
       -0.2248507 0.38739008 -0.3778035 -0.0067098727
0001a0 4a 59 1f 3d 0c 26 93 be ed d0 53 3e b6 b9 af be
       0.038903512 -0.28739965 0.20685168 -0.34321374
0001b0 f3 59 f7 be 45 a3 90 be cb 18 82 3e 1b 02 6e 3e
       -0.48310813 -0.28249565 0.2540954 0.2324299
0001c0 36 ef e5 be 34 ff d4 3e ef 64 4f 3d 37 0b 50 3e
       -0.44909066 0.41600955 0.050633367 0.20316778
0001d0 7f 40 99 3e b7 9b 89 3e 12 7e 8d 3d e3 33 3f 3e
       0.2993202 0.26876613 0.06908812 0.18672137
0001e0 71 3b 19 bf 80 92 52 3d a3 e0 97 be ec 43 f1 3d
       -0.59856325 0.051409245 -0.29663572 0.11780533
0001f0 7b a2 a7 bd 20 46 bd 3d 63 38 2d be a8 e6 00 3e
       -0.081852876 0.09241891 -0.16916041 0.12587988
000200 6b 30 d9 3d ae 3f 6d bd 9d fc 00 bf 3e 72 d8 3d
       0.10604938 -0.057922058 -0.5038546 0.10568665
000210 e0 70 97 be e6 27 c8 be 85 2b be 3d 63 3f c1 3d
       -0.29578304 -0.3909294 0.092856444 0.09435918
000220 d9 52 2b 3e 6b 9d f2 3d 18 42 f1 be 3e 85 5e 3e
       0.16730823 0.11846431 -0.47120738 0.21730515
000230 c4 3e 0b be c7 14 10 be 72 27 0e be 95 9d 35 3e
       -0.13598162 -0.14070426 -0.13882235 0.17735894
000240 f3 8b 45 3d 24 f7 ab 3e 65 6d d2 bc a0 bc f9 3d
       0.04822917 0.3358699 -0.025686929 0.121941805
000250 2c 96 3f 3e 03 dc 81 bd 49 34 a5 3d ad 69 37 3c
       0.1870963 -0.06340792 0.08066613 0.011194629
000260 e0 5a 6a 3d 21 3d 97 bd 19 7e 68 3e d8 3e ae 3d
       0.05721557 -0.07384706 0.22704352 0.0850808
000270 78 49 dd 3d 2f 49 f7 be 70 d4 12 3e 1a 8c 31 bd
       0.10805029 -0.48298022 0.14338851 -0.043346502
000280 3d b1 c0 bc c1 ae dc be 84 1d 90 3e 36 48 52 3e
       -0.023522014 -0.43102077 0.2814752 0.20535359
000290 00 cf e2 3d 8e 00 ea 3d e1 cc 5a bd aa 1a 8e be
       0.11074638 0.11425887 -0.053418044 -0.27754718
0002a0 16 59 00 bd 68 8a 9d bf 04 91 7a bf cf d1 18 bf
       -0.03133496 -1.2307863 -0.97877526 -0.5969514
0002b0 86 25 b7 3e 5c a6 12 bf b5 ef c3 3d ad f1 db be
       0.35770816 -0.57285094 0.09567205 -0.4295782
0002c0 6a c8 ac be 68 b0 6f 3c ff ca aa be 99 91 38 3b
       -0.33746654 0.014629461 -0.33358 0.0028162955
0002d0 18 6a 8f bc c1 c8 14 3e 48 9a 3f 3e 85 4c fb be
       -0.017506644 0.14529707 0.18711197 -0.49081817
0002e0 67 86 69 3e b4 7b 1b 3e bf d5 44 3d 44 b4 09 be
       0.22805177 0.15183908 0.048055407 -0.13447672
0002f0 b1 a5 d7 bc 1b 5e 9d be cf f5 d5 bd 91 b1 65 3c
       -0.026324125 -0.3073586 -0.10447275 0.014019386
000300 fd 08 86 3b bd 78 af be 6b ba e4 be df 3a 06 bd
       0.004090427 -0.34271803 -0.44673476 -0.032770988
000310 09 f1 c3 be 44 a3 0c be 6d a8 01 3f 59 6d ff 3d
       -0.38269833 -0.13734156 0.5064762 0.12472028
000320 ee 86 d4 3d 03 e8 0d bf 52 a1 da be ea 3c 48 3e
       0.10377298 -0.55432147 -0.42701203 0.19554487
000330 23 16 79 3e 83 0a 73 3e b6 d2 ac 3e ab 73 cc be
       0.2432485 0.23734479 0.3375451 -0.39931998
000340 fa be ef 3a c4 e0 b1 3c 90 d1 97 3d 7b c9 13 bf
       0.0018291168 0.021713622 0.07413018 -0.5772931
000350 40 34 09 bf b3 3b 3c bf 40 3a 92 be 3f ff 82 3d
       -0.5359535 -0.73528594 -0.28560066 0.063963406
000360 af d6 cc bd 42 62 0c bf 8a 17 f5 be fd 17 fb 3d
       -0.10001885 -0.5483743 -0.4786952 0.12260435
000370 61 a0 76 3e bd 1a 46 3e 3c b4 cd 3e 61 7c 8b 3e
       0.24084617 0.19346137 0.4017657 0.2724333
000380 5a 91 35 bf e0 4c 99 3d 95 ed 59 be a2 7e 9c bd
       -0.70924914 0.07485366 -0.21282037 -0.07641341
000390 43 53 2c be 47 60 4a 3e 09 63 aa be 01 8c 8b 3e
       -0.16828637 0.1976329 -0.33278683 0.27255252
0003a0 e6 11 20 bd ca 01 c0 be 00 81 b3 3e 89 a9 21 be
       -0.03907957 -0.37501365 0.35059357 -0.15787329
0003b0 e2 1e b8 3d 57 96 ae be 37 4c d0 be ac 82 4b 3e
       0.089902654 -0.34099075 -0.40683147 0.19874066
0003c0 8a 79 5e bd 3f cb 1f 3e fe 8c 51 bf 7a e2 b0 bd
       -0.054315127 0.15604876 -0.8185576 -0.08636947
0003d0 4e 71 fd be e0 29 8c 3e 18 4f c0 3d 10 82 a4 bd
       -0.49500507 0.27375698 0.09390086 -0.0803262
0003e0 c8 5a 32 3d fc 53 82 be 70 1a 00 bf 8f 9b d0 be
       0.043543607 -0.254547 -0.5004034 -0.40743682
0003f0 6d f9 4d bd 5e 47 8d bf f2 6b 8a 3e c9 25 29 3e
       -0.0502867 -1.1037405 0.2703548 0.1651832
